node {
  name: "input_label"
  op: "Placeholder"
  attr {
    key: "_user_specified_name"
    value {
      s: "input_label"
    }
  }
  attr {
    key: "dtype"
    value {
      type: DT_FLOAT
    }
  }
  attr {
    key: "shape"
    value {
      shape {
        dim {
          size: -1
        }
        dim {
          size: -1
        }
        dim {
          size: -1
        }
        dim {
          size: 18
        }
      }
    }
  }
}
node {
  name: "real_img"
  op: "Placeholder"
  attr {
    key: "_user_specified_name"
    value {
      s: "real_img"
    }
  }
  attr {
    key: "dtype"
    value {
      type: DT_FLOAT
    }
  }
  attr {
    key: "shape"
    value {
      shape {
        dim {
          size: -1
        }
        dim {
          size: -1
        }
        dim {
          size: -1
        }
        dim {
          size: 3
        }
      }
    }
  }
}
node {
  name: "global_generator/StatefulPartitionedCall/args_1"
  op: "Placeholder"
  attr {
    key: "dtype"
    value {
      type: DT_RESOURCE
    }
  }
  attr {
    key: "shape"
    value {
      shape {
      }
    }
  }
}
node {
  name: "global_generator/StatefulPartitionedCall/args_2"
  op: "Placeholder"
  attr {
    key: "dtype"
    value {
      type: DT_RESOURCE
    }
  }
  attr {
    key: "shape"
    value {
      shape {
      }
    }
  }
}
node {
  name: "global_generator/StatefulPartitionedCall/args_3"
  op: "Placeholder"
  attr {
    key: "dtype"
    value {
      type: DT_RESOURCE
    }
  }
  attr {
    key: "shape"
    value {
      shape {
      }
    }
  }
}
node {
  name: "global_generator/StatefulPartitionedCall/args_4"
  op: "Placeholder"
  attr {
    key: "dtype"
    value {
      type: DT_RESOURCE
    }
  }
  attr {
    key: "shape"
    value {
      shape {
      }
    }
  }
}
node {
  name: "global_generator/StatefulPartitionedCall/args_5"
  op: "Placeholder"
  attr {
    key: "dtype"
    value {
      type: DT_RESOURCE
    }
  }
  attr {
    key: "shape"
    value {
      shape {
      }
    }
  }
}
node {
  name: "global_generator/StatefulPartitionedCall/args_6"
  op: "Placeholder"
  attr {
    key: "dtype"
    value {
      type: DT_RESOURCE
    }
  }
  attr {
    key: "shape"
    value {
      shape {
      }
    }
  }
}
node {
  name: "global_generator/StatefulPartitionedCall/args_7"
  op: "Placeholder"
  attr {
    key: "dtype"
    value {
      type: DT_RESOURCE
    }
  }
  attr {
    key: "shape"
    value {
      shape {
      }
    }
  }
}
node {
  name: "global_generator/StatefulPartitionedCall/args_8"
  op: "Placeholder"
  attr {
    key: "dtype"
    value {
      type: DT_RESOURCE
    }
  }
  attr {
    key: "shape"
    value {
      shape {
      }
    }
  }
}
node {
  name: "global_generator/StatefulPartitionedCall/args_9"
  op: "Placeholder"
  attr {
    key: "dtype"
    value {
      type: DT_RESOURCE
    }
  }
  attr {
    key: "shape"
    value {
      shape {
      }
    }
  }
}
node {
  name: "global_generator/StatefulPartitionedCall/args_10"
  op: "Placeholder"
  attr {
    key: "dtype"
    value {
      type: DT_RESOURCE
    }
  }
  attr {
    key: "shape"
    value {
      shape {
      }
    }
  }
}
node {
  name: "global_generator/StatefulPartitionedCall/args_11"
  op: "Placeholder"
  attr {
    key: "dtype"
    value {
      type: DT_RESOURCE
    }
  }
  attr {
    key: "shape"
    value {
      shape {
      }
    }
  }
}
node {
  name: "global_generator/StatefulPartitionedCall/args_12"
  op: "Placeholder"
  attr {
    key: "dtype"
    value {
      type: DT_RESOURCE
    }
  }
  attr {
    key: "shape"
    value {
      shape {
      }
    }
  }
}
node {
  name: "global_generator/StatefulPartitionedCall/args_13"
  op: "Placeholder"
  attr {
    key: "dtype"
    value {
      type: DT_RESOURCE
    }
  }
  attr {
    key: "shape"
    value {
      shape {
      }
    }
  }
}
node {
  name: "global_generator/StatefulPartitionedCall/args_14"
  op: "Placeholder"
  attr {
    key: "dtype"
    value {
      type: DT_RESOURCE
    }
  }
  attr {
    key: "shape"
    value {
      shape {
      }
    }
  }
}
node {
  name: "global_generator/StatefulPartitionedCall/args_15"
  op: "Placeholder"
  attr {
    key: "dtype"
    value {
      type: DT_RESOURCE
    }
  }
  attr {
    key: "shape"
    value {
      shape {
      }
    }
  }
}
node {
  name: "global_generator/StatefulPartitionedCall/args_16"
  op: "Placeholder"
  attr {
    key: "dtype"
    value {
      type: DT_RESOURCE
    }
  }
  attr {
    key: "shape"
    value {
      shape {
      }
    }
  }
}
node {
  name: "global_generator/StatefulPartitionedCall/args_17"
  op: "Placeholder"
  attr {
    key: "dtype"
    value {
      type: DT_RESOURCE
    }
  }
  attr {
    key: "shape"
    value {
      shape {
      }
    }
  }
}
node {
  name: "global_generator/StatefulPartitionedCall/args_18"
  op: "Placeholder"
  attr {
    key: "dtype"
    value {
      type: DT_RESOURCE
    }
  }
  attr {
    key: "shape"
    value {
      shape {
      }
    }
  }
}
node {
  name: "global_generator/StatefulPartitionedCall/args_19"
  op: "Placeholder"
  attr {
    key: "dtype"
    value {
      type: DT_RESOURCE
    }
  }
  attr {
    key: "shape"
    value {
      shape {
      }
    }
  }
}
node {
  name: "global_generator/StatefulPartitionedCall/args_20"
  op: "Placeholder"
  attr {
    key: "dtype"
    value {
      type: DT_RESOURCE
    }
  }
  attr {
    key: "shape"
    value {
      shape {
      }
    }
  }
}
node {
  name: "global_generator/StatefulPartitionedCall/args_21"
  op: "Placeholder"
  attr {
    key: "dtype"
    value {
      type: DT_RESOURCE
    }
  }
  attr {
    key: "shape"
    value {
      shape {
      }
    }
  }
}
node {
  name: "global_generator/StatefulPartitionedCall/args_22"
  op: "Placeholder"
  attr {
    key: "dtype"
    value {
      type: DT_RESOURCE
    }
  }
  attr {
    key: "shape"
    value {
      shape {
      }
    }
  }
}
node {
  name: "global_generator/StatefulPartitionedCall/args_23"
  op: "Placeholder"
  attr {
    key: "dtype"
    value {
      type: DT_RESOURCE
    }
  }
  attr {
    key: "shape"
    value {
      shape {
      }
    }
  }
}
node {
  name: "global_generator/StatefulPartitionedCall/args_24"
  op: "Placeholder"
  attr {
    key: "dtype"
    value {
      type: DT_RESOURCE
    }
  }
  attr {
    key: "shape"
    value {
      shape {
      }
    }
  }
}
node {
  name: "global_generator/StatefulPartitionedCall/args_25"
  op: "Placeholder"
  attr {
    key: "dtype"
    value {
      type: DT_RESOURCE
    }
  }
  attr {
    key: "shape"
    value {
      shape {
      }
    }
  }
}
node {
  name: "global_generator/StatefulPartitionedCall/args_26"
  op: "Placeholder"
  attr {
    key: "dtype"
    value {
      type: DT_RESOURCE
    }
  }
  attr {
    key: "shape"
    value {
      shape {
      }
    }
  }
}
node {
  name: "global_generator/StatefulPartitionedCall/args_27"
  op: "Placeholder"
  attr {
    key: "dtype"
    value {
      type: DT_RESOURCE
    }
  }
  attr {
    key: "shape"
    value {
      shape {
      }
    }
  }
}
node {
  name: "global_generator/StatefulPartitionedCall/args_28"
  op: "Placeholder"
  attr {
    key: "dtype"
    value {
      type: DT_RESOURCE
    }
  }
  attr {
    key: "shape"
    value {
      shape {
      }
    }
  }
}
node {
  name: "global_generator/StatefulPartitionedCall/args_29"
  op: "Placeholder"
  attr {
    key: "dtype"
    value {
      type: DT_RESOURCE
    }
  }
  attr {
    key: "shape"
    value {
      shape {
      }
    }
  }
}
node {
  name: "global_generator/StatefulPartitionedCall/args_30"
  op: "Placeholder"
  attr {
    key: "dtype"
    value {
      type: DT_RESOURCE
    }
  }
  attr {
    key: "shape"
    value {
      shape {
      }
    }
  }
}
node {
  name: "global_generator/StatefulPartitionedCall/args_31"
  op: "Placeholder"
  attr {
    key: "dtype"
    value {
      type: DT_RESOURCE
    }
  }
  attr {
    key: "shape"
    value {
      shape {
      }
    }
  }
}
node {
  name: "global_generator/StatefulPartitionedCall/args_32"
  op: "Placeholder"
  attr {
    key: "dtype"
    value {
      type: DT_RESOURCE
    }
  }
  attr {
    key: "shape"
    value {
      shape {
      }
    }
  }
}
node {
  name: "global_generator/StatefulPartitionedCall/args_33"
  op: "Placeholder"
  attr {
    key: "dtype"
    value {
      type: DT_RESOURCE
    }
  }
  attr {
    key: "shape"
    value {
      shape {
      }
    }
  }
}
node {
  name: "global_generator/StatefulPartitionedCall/args_34"
  op: "Placeholder"
  attr {
    key: "dtype"
    value {
      type: DT_RESOURCE
    }
  }
  attr {
    key: "shape"
    value {
      shape {
      }
    }
  }
}
node {
  name: "global_generator/StatefulPartitionedCall/args_35"
  op: "Placeholder"
  attr {
    key: "dtype"
    value {
      type: DT_RESOURCE
    }
  }
  attr {
    key: "shape"
    value {
      shape {
      }
    }
  }
}
node {
  name: "global_generator/StatefulPartitionedCall/args_36"
  op: "Placeholder"
  attr {
    key: "dtype"
    value {
      type: DT_RESOURCE
    }
  }
  attr {
    key: "shape"
    value {
      shape {
      }
    }
  }
}
node {
  name: "global_generator/StatefulPartitionedCall/args_37"
  op: "Placeholder"
  attr {
    key: "dtype"
    value {
      type: DT_RESOURCE
    }
  }
  attr {
    key: "shape"
    value {
      shape {
      }
    }
  }
}
node {
  name: "global_generator/StatefulPartitionedCall/args_38"
  op: "Placeholder"
  attr {
    key: "dtype"
    value {
      type: DT_RESOURCE
    }
  }
  attr {
    key: "shape"
    value {
      shape {
      }
    }
  }
}
node {
  name: "global_generator/StatefulPartitionedCall/args_39"
  op: "Placeholder"
  attr {
    key: "dtype"
    value {
      type: DT_RESOURCE
    }
  }
  attr {
    key: "shape"
    value {
      shape {
      }
    }
  }
}
node {
  name: "global_generator/StatefulPartitionedCall/args_40"
  op: "Placeholder"
  attr {
    key: "dtype"
    value {
      type: DT_RESOURCE
    }
  }
  attr {
    key: "shape"
    value {
      shape {
      }
    }
  }
}
node {
  name: "global_generator/StatefulPartitionedCall/args_41"
  op: "Placeholder"
  attr {
    key: "dtype"
    value {
      type: DT_RESOURCE
    }
  }
  attr {
    key: "shape"
    value {
      shape {
      }
    }
  }
}
node {
  name: "global_generator/StatefulPartitionedCall/args_42"
  op: "Placeholder"
  attr {
    key: "dtype"
    value {
      type: DT_RESOURCE
    }
  }
  attr {
    key: "shape"
    value {
      shape {
      }
    }
  }
}
node {
  name: "global_generator/StatefulPartitionedCall/args_43"
  op: "Placeholder"
  attr {
    key: "dtype"
    value {
      type: DT_RESOURCE
    }
  }
  attr {
    key: "shape"
    value {
      shape {
      }
    }
  }
}
node {
  name: "global_generator/StatefulPartitionedCall/args_44"
  op: "Placeholder"
  attr {
    key: "dtype"
    value {
      type: DT_RESOURCE
    }
  }
  attr {
    key: "shape"
    value {
      shape {
      }
    }
  }
}
node {
  name: "global_generator/StatefulPartitionedCall/args_45"
  op: "Placeholder"
  attr {
    key: "dtype"
    value {
      type: DT_RESOURCE
    }
  }
  attr {
    key: "shape"
    value {
      shape {
      }
    }
  }
}
node {
  name: "global_generator/StatefulPartitionedCall/args_46"
  op: "Placeholder"
  attr {
    key: "dtype"
    value {
      type: DT_RESOURCE
    }
  }
  attr {
    key: "shape"
    value {
      shape {
      }
    }
  }
}
node {
  name: "global_generator/StatefulPartitionedCall/args_47"
  op: "Placeholder"
  attr {
    key: "dtype"
    value {
      type: DT_RESOURCE
    }
  }
  attr {
    key: "shape"
    value {
      shape {
      }
    }
  }
}
node {
  name: "global_generator/StatefulPartitionedCall/args_48"
  op: "Placeholder"
  attr {
    key: "dtype"
    value {
      type: DT_RESOURCE
    }
  }
  attr {
    key: "shape"
    value {
      shape {
      }
    }
  }
}
node {
  name: "global_generator/StatefulPartitionedCall/args_49"
  op: "Placeholder"
  attr {
    key: "dtype"
    value {
      type: DT_RESOURCE
    }
  }
  attr {
    key: "shape"
    value {
      shape {
      }
    }
  }
}
node {
  name: "global_generator/StatefulPartitionedCall/args_50"
  op: "Placeholder"
  attr {
    key: "dtype"
    value {
      type: DT_RESOURCE
    }
  }
  attr {
    key: "shape"
    value {
      shape {
      }
    }
  }
}
node {
  name: "global_generator/StatefulPartitionedCall/args_51"
  op: "Placeholder"
  attr {
    key: "dtype"
    value {
      type: DT_RESOURCE
    }
  }
  attr {
    key: "shape"
    value {
      shape {
      }
    }
  }
}
node {
  name: "global_generator/StatefulPartitionedCall/args_52"
  op: "Placeholder"
  attr {
    key: "dtype"
    value {
      type: DT_RESOURCE
    }
  }
  attr {
    key: "shape"
    value {
      shape {
      }
    }
  }
}
node {
  name: "global_generator/StatefulPartitionedCall/args_53"
  op: "Placeholder"
  attr {
    key: "dtype"
    value {
      type: DT_RESOURCE
    }
  }
  attr {
    key: "shape"
    value {
      shape {
      }
    }
  }
}
node {
  name: "global_generator/StatefulPartitionedCall/args_54"
  op: "Placeholder"
  attr {
    key: "dtype"
    value {
      type: DT_RESOURCE
    }
  }
  attr {
    key: "shape"
    value {
      shape {
      }
    }
  }
}
node {
  name: "global_generator/StatefulPartitionedCall/args_55"
  op: "Placeholder"
  attr {
    key: "dtype"
    value {
      type: DT_RESOURCE
    }
  }
  attr {
    key: "shape"
    value {
      shape {
      }
    }
  }
}
node {
  name: "global_generator/StatefulPartitionedCall/args_56"
  op: "Placeholder"
  attr {
    key: "dtype"
    value {
      type: DT_RESOURCE
    }
  }
  attr {
    key: "shape"
    value {
      shape {
      }
    }
  }
}
node {
  name: "global_generator/StatefulPartitionedCall/args_57"
  op: "Placeholder"
  attr {
    key: "dtype"
    value {
      type: DT_RESOURCE
    }
  }
  attr {
    key: "shape"
    value {
      shape {
      }
    }
  }
}
node {
  name: "global_generator/StatefulPartitionedCall/args_58"
  op: "Placeholder"
  attr {
    key: "dtype"
    value {
      type: DT_RESOURCE
    }
  }
  attr {
    key: "shape"
    value {
      shape {
      }
    }
  }
}
node {
  name: "global_generator/StatefulPartitionedCall/args_59"
  op: "Placeholder"
  attr {
    key: "dtype"
    value {
      type: DT_RESOURCE
    }
  }
  attr {
    key: "shape"
    value {
      shape {
      }
    }
  }
}
node {
  name: "global_generator/StatefulPartitionedCall/args_60"
  op: "Placeholder"
  attr {
    key: "dtype"
    value {
      type: DT_RESOURCE
    }
  }
  attr {
    key: "shape"
    value {
      shape {
      }
    }
  }
}
node {
  name: "global_generator/StatefulPartitionedCall/args_61"
  op: "Placeholder"
  attr {
    key: "dtype"
    value {
      type: DT_RESOURCE
    }
  }
  attr {
    key: "shape"
    value {
      shape {
      }
    }
  }
}
node {
  name: "global_generator/StatefulPartitionedCall/args_62"
  op: "Placeholder"
  attr {
    key: "dtype"
    value {
      type: DT_RESOURCE
    }
  }
  attr {
    key: "shape"
    value {
      shape {
      }
    }
  }
}
node {
  name: "global_generator/StatefulPartitionedCall/args_63"
  op: "Placeholder"
  attr {
    key: "dtype"
    value {
      type: DT_RESOURCE
    }
  }
  attr {
    key: "shape"
    value {
      shape {
      }
    }
  }
}
node {
  name: "global_generator/StatefulPartitionedCall/args_64"
  op: "Placeholder"
  attr {
    key: "dtype"
    value {
      type: DT_RESOURCE
    }
  }
  attr {
    key: "shape"
    value {
      shape {
      }
    }
  }
}
node {
  name: "global_generator/StatefulPartitionedCall/args_65"
  op: "Placeholder"
  attr {
    key: "dtype"
    value {
      type: DT_RESOURCE
    }
  }
  attr {
    key: "shape"
    value {
      shape {
      }
    }
  }
}
node {
  name: "global_generator/StatefulPartitionedCall/args_66"
  op: "Placeholder"
  attr {
    key: "dtype"
    value {
      type: DT_RESOURCE
    }
  }
  attr {
    key: "shape"
    value {
      shape {
      }
    }
  }
}
node {
  name: "global_generator/StatefulPartitionedCall/args_67"
  op: "Placeholder"
  attr {
    key: "dtype"
    value {
      type: DT_RESOURCE
    }
  }
  attr {
    key: "shape"
    value {
      shape {
      }
    }
  }
}
node {
  name: "global_generator/StatefulPartitionedCall/args_68"
  op: "Placeholder"
  attr {
    key: "dtype"
    value {
      type: DT_RESOURCE
    }
  }
  attr {
    key: "shape"
    value {
      shape {
      }
    }
  }
}
node {
  name: "global_generator/StatefulPartitionedCall/args_69"
  op: "Placeholder"
  attr {
    key: "dtype"
    value {
      type: DT_RESOURCE
    }
  }
  attr {
    key: "shape"
    value {
      shape {
      }
    }
  }
}
node {
  name: "global_generator/StatefulPartitionedCall/args_70"
  op: "Placeholder"
  attr {
    key: "dtype"
    value {
      type: DT_RESOURCE
    }
  }
  attr {
    key: "shape"
    value {
      shape {
      }
    }
  }
}
node {
  name: "global_generator/StatefulPartitionedCall/args_71"
  op: "Placeholder"
  attr {
    key: "dtype"
    value {
      type: DT_RESOURCE
    }
  }
  attr {
    key: "shape"
    value {
      shape {
      }
    }
  }
}
node {
  name: "global_generator/StatefulPartitionedCall/args_72"
  op: "Placeholder"
  attr {
    key: "dtype"
    value {
      type: DT_RESOURCE
    }
  }
  attr {
    key: "shape"
    value {
      shape {
      }
    }
  }
}
node {
  name: "global_generator/StatefulPartitionedCall/args_73"
  op: "Placeholder"
  attr {
    key: "dtype"
    value {
      type: DT_RESOURCE
    }
  }
  attr {
    key: "shape"
    value {
      shape {
      }
    }
  }
}
node {
  name: "global_generator/StatefulPartitionedCall/args_74"
  op: "Placeholder"
  attr {
    key: "dtype"
    value {
      type: DT_RESOURCE
    }
  }
  attr {
    key: "shape"
    value {
      shape {
      }
    }
  }
}
node {
  name: "global_generator/StatefulPartitionedCall/args_75"
  op: "Placeholder"
  attr {
    key: "dtype"
    value {
      type: DT_RESOURCE
    }
  }
  attr {
    key: "shape"
    value {
      shape {
      }
    }
  }
}
node {
  name: "global_generator/StatefulPartitionedCall/args_76"
  op: "Placeholder"
  attr {
    key: "dtype"
    value {
      type: DT_RESOURCE
    }
  }
  attr {
    key: "shape"
    value {
      shape {
      }
    }
  }
}
node {
  name: "global_generator/StatefulPartitionedCall/args_77"
  op: "Placeholder"
  attr {
    key: "dtype"
    value {
      type: DT_RESOURCE
    }
  }
  attr {
    key: "shape"
    value {
      shape {
      }
    }
  }
}
node {
  name: "global_generator/StatefulPartitionedCall/args_78"
  op: "Placeholder"
  attr {
    key: "dtype"
    value {
      type: DT_RESOURCE
    }
  }
  attr {
    key: "shape"
    value {
      shape {
      }
    }
  }
}
node {
  name: "global_generator/StatefulPartitionedCall/args_79"
  op: "Placeholder"
  attr {
    key: "dtype"
    value {
      type: DT_RESOURCE
    }
  }
  attr {
    key: "shape"
    value {
      shape {
      }
    }
  }
}
node {
  name: "global_generator/StatefulPartitionedCall/args_80"
  op: "Placeholder"
  attr {
    key: "dtype"
    value {
      type: DT_RESOURCE
    }
  }
  attr {
    key: "shape"
    value {
      shape {
      }
    }
  }
}
node {
  name: "global_generator/StatefulPartitionedCall/args_81"
  op: "Placeholder"
  attr {
    key: "dtype"
    value {
      type: DT_RESOURCE
    }
  }
  attr {
    key: "shape"
    value {
      shape {
      }
    }
  }
}
node {
  name: "global_generator/StatefulPartitionedCall/args_82"
  op: "Placeholder"
  attr {
    key: "dtype"
    value {
      type: DT_RESOURCE
    }
  }
  attr {
    key: "shape"
    value {
      shape {
      }
    }
  }
}
node {
  name: "global_generator/StatefulPartitionedCall/args_83"
  op: "Placeholder"
  attr {
    key: "dtype"
    value {
      type: DT_RESOURCE
    }
  }
  attr {
    key: "shape"
    value {
      shape {
      }
    }
  }
}
node {
  name: "global_generator/StatefulPartitionedCall/args_84"
  op: "Placeholder"
  attr {
    key: "dtype"
    value {
      type: DT_RESOURCE
    }
  }
  attr {
    key: "shape"
    value {
      shape {
      }
    }
  }
}
node {
  name: "global_generator/StatefulPartitionedCall/args_85"
  op: "Placeholder"
  attr {
    key: "dtype"
    value {
      type: DT_RESOURCE
    }
  }
  attr {
    key: "shape"
    value {
      shape {
      }
    }
  }
}
node {
  name: "global_generator/StatefulPartitionedCall/args_86"
  op: "Placeholder"
  attr {
    key: "dtype"
    value {
      type: DT_RESOURCE
    }
  }
  attr {
    key: "shape"
    value {
      shape {
      }
    }
  }
}
node {
  name: "global_generator/StatefulPartitionedCall/args_87"
  op: "Placeholder"
  attr {
    key: "dtype"
    value {
      type: DT_RESOURCE
    }
  }
  attr {
    key: "shape"
    value {
      shape {
      }
    }
  }
}
node {
  name: "global_generator/StatefulPartitionedCall/args_88"
  op: "Placeholder"
  attr {
    key: "dtype"
    value {
      type: DT_RESOURCE
    }
  }
  attr {
    key: "shape"
    value {
      shape {
      }
    }
  }
}
node {
  name: "global_generator/StatefulPartitionedCall/args_89"
  op: "Placeholder"
  attr {
    key: "dtype"
    value {
      type: DT_RESOURCE
    }
  }
  attr {
    key: "shape"
    value {
      shape {
      }
    }
  }
}
node {
  name: "global_generator/StatefulPartitionedCall/args_90"
  op: "Placeholder"
  attr {
    key: "dtype"
    value {
      type: DT_RESOURCE
    }
  }
  attr {
    key: "shape"
    value {
      shape {
      }
    }
  }
}
node {
  name: "global_generator/StatefulPartitionedCall/args_91"
  op: "Placeholder"
  attr {
    key: "dtype"
    value {
      type: DT_RESOURCE
    }
  }
  attr {
    key: "shape"
    value {
      shape {
      }
    }
  }
}
node {
  name: "global_generator/StatefulPartitionedCall/args_92"
  op: "Placeholder"
  attr {
    key: "dtype"
    value {
      type: DT_RESOURCE
    }
  }
  attr {
    key: "shape"
    value {
      shape {
      }
    }
  }
}
node {
  name: "global_generator/StatefulPartitionedCall/args_93"
  op: "Placeholder"
  attr {
    key: "dtype"
    value {
      type: DT_RESOURCE
    }
  }
  attr {
    key: "shape"
    value {
      shape {
      }
    }
  }
}
node {
  name: "global_generator/StatefulPartitionedCall/args_94"
  op: "Placeholder"
  attr {
    key: "dtype"
    value {
      type: DT_RESOURCE
    }
  }
  attr {
    key: "shape"
    value {
      shape {
      }
    }
  }
}
node {
  name: "global_generator/StatefulPartitionedCall/args_95"
  op: "Placeholder"
  attr {
    key: "dtype"
    value {
      type: DT_RESOURCE
    }
  }
  attr {
    key: "shape"
    value {
      shape {
      }
    }
  }
}
node {
  name: "global_generator/StatefulPartitionedCall/args_96"
  op: "Placeholder"
  attr {
    key: "dtype"
    value {
      type: DT_RESOURCE
    }
  }
  attr {
    key: "shape"
    value {
      shape {
      }
    }
  }
}
node {
  name: "global_generator/StatefulPartitionedCall/args_97"
  op: "Placeholder"
  attr {
    key: "dtype"
    value {
      type: DT_RESOURCE
    }
  }
  attr {
    key: "shape"
    value {
      shape {
      }
    }
  }
}
node {
  name: "global_generator/StatefulPartitionedCall/args_98"
  op: "Placeholder"
  attr {
    key: "dtype"
    value {
      type: DT_RESOURCE
    }
  }
  attr {
    key: "shape"
    value {
      shape {
      }
    }
  }
}
node {
  name: "global_generator/StatefulPartitionedCall/args_99"
  op: "Placeholder"
  attr {
    key: "dtype"
    value {
      type: DT_RESOURCE
    }
  }
  attr {
    key: "shape"
    value {
      shape {
      }
    }
  }
}
node {
  name: "global_generator/StatefulPartitionedCall/args_100"
  op: "Placeholder"
  attr {
    key: "dtype"
    value {
      type: DT_RESOURCE
    }
  }
  attr {
    key: "shape"
    value {
      shape {
      }
    }
  }
}
node {
  name: "global_generator/StatefulPartitionedCall/args_101"
  op: "Placeholder"
  attr {
    key: "dtype"
    value {
      type: DT_RESOURCE
    }
  }
  attr {
    key: "shape"
    value {
      shape {
      }
    }
  }
}
node {
  name: "global_generator/StatefulPartitionedCall/args_102"
  op: "Placeholder"
  attr {
    key: "dtype"
    value {
      type: DT_RESOURCE
    }
  }
  attr {
    key: "shape"
    value {
      shape {
      }
    }
  }
}
node {
  name: "global_generator/StatefulPartitionedCall/args_103"
  op: "Placeholder"
  attr {
    key: "dtype"
    value {
      type: DT_RESOURCE
    }
  }
  attr {
    key: "shape"
    value {
      shape {
      }
    }
  }
}
node {
  name: "global_generator/StatefulPartitionedCall/args_104"
  op: "Placeholder"
  attr {
    key: "dtype"
    value {
      type: DT_RESOURCE
    }
  }
  attr {
    key: "shape"
    value {
      shape {
      }
    }
  }
}
node {
  name: "global_generator/StatefulPartitionedCall/args_105"
  op: "Placeholder"
  attr {
    key: "dtype"
    value {
      type: DT_RESOURCE
    }
  }
  attr {
    key: "shape"
    value {
      shape {
      }
    }
  }
}
node {
  name: "global_generator/StatefulPartitionedCall/args_106"
  op: "Placeholder"
  attr {
    key: "dtype"
    value {
      type: DT_RESOURCE
    }
  }
  attr {
    key: "shape"
    value {
      shape {
      }
    }
  }
}
node {
  name: "global_generator/StatefulPartitionedCall/args_107"
  op: "Placeholder"
  attr {
    key: "dtype"
    value {
      type: DT_RESOURCE
    }
  }
  attr {
    key: "shape"
    value {
      shape {
      }
    }
  }
}
node {
  name: "global_generator/StatefulPartitionedCall/args_108"
  op: "Placeholder"
  attr {
    key: "dtype"
    value {
      type: DT_RESOURCE
    }
  }
  attr {
    key: "shape"
    value {
      shape {
      }
    }
  }
}
node {
  name: "global_generator/StatefulPartitionedCall/args_109"
  op: "Placeholder"
  attr {
    key: "dtype"
    value {
      type: DT_RESOURCE
    }
  }
  attr {
    key: "shape"
    value {
      shape {
      }
    }
  }
}
node {
  name: "global_generator/StatefulPartitionedCall/args_110"
  op: "Placeholder"
  attr {
    key: "dtype"
    value {
      type: DT_RESOURCE
    }
  }
  attr {
    key: "shape"
    value {
      shape {
      }
    }
  }
}
node {
  name: "global_generator/StatefulPartitionedCall"
  op: "StatefulPartitionedCall"
  input: "input_label"
  input: "global_generator/StatefulPartitionedCall/args_1"
  input: "global_generator/StatefulPartitionedCall/args_2"
  input: "global_generator/StatefulPartitionedCall/args_3"
  input: "global_generator/StatefulPartitionedCall/args_4"
  input: "global_generator/StatefulPartitionedCall/args_5"
  input: "global_generator/StatefulPartitionedCall/args_6"
  input: "global_generator/StatefulPartitionedCall/args_7"
  input: "global_generator/StatefulPartitionedCall/args_8"
  input: "global_generator/StatefulPartitionedCall/args_9"
  input: "global_generator/StatefulPartitionedCall/args_10"
  input: "global_generator/StatefulPartitionedCall/args_11"
  input: "global_generator/StatefulPartitionedCall/args_12"
  input: "global_generator/StatefulPartitionedCall/args_13"
  input: "global_generator/StatefulPartitionedCall/args_14"
  input: "global_generator/StatefulPartitionedCall/args_15"
  input: "global_generator/StatefulPartitionedCall/args_16"
  input: "global_generator/StatefulPartitionedCall/args_17"
  input: "global_generator/StatefulPartitionedCall/args_18"
  input: "global_generator/StatefulPartitionedCall/args_19"
  input: "global_generator/StatefulPartitionedCall/args_20"
  input: "global_generator/StatefulPartitionedCall/args_21"
  input: "global_generator/StatefulPartitionedCall/args_22"
  input: "global_generator/StatefulPartitionedCall/args_23"
  input: "global_generator/StatefulPartitionedCall/args_24"
  input: "global_generator/StatefulPartitionedCall/args_25"
  input: "global_generator/StatefulPartitionedCall/args_26"
  input: "global_generator/StatefulPartitionedCall/args_27"
  input: "global_generator/StatefulPartitionedCall/args_28"
  input: "global_generator/StatefulPartitionedCall/args_29"
  input: "global_generator/StatefulPartitionedCall/args_30"
  input: "global_generator/StatefulPartitionedCall/args_31"
  input: "global_generator/StatefulPartitionedCall/args_32"
  input: "global_generator/StatefulPartitionedCall/args_33"
  input: "global_generator/StatefulPartitionedCall/args_34"
  input: "global_generator/StatefulPartitionedCall/args_35"
  input: "global_generator/StatefulPartitionedCall/args_36"
  input: "global_generator/StatefulPartitionedCall/args_37"
  input: "global_generator/StatefulPartitionedCall/args_38"
  input: "global_generator/StatefulPartitionedCall/args_39"
  input: "global_generator/StatefulPartitionedCall/args_40"
  input: "global_generator/StatefulPartitionedCall/args_41"
  input: "global_generator/StatefulPartitionedCall/args_42"
  input: "global_generator/StatefulPartitionedCall/args_43"
  input: "global_generator/StatefulPartitionedCall/args_44"
  input: "global_generator/StatefulPartitionedCall/args_45"
  input: "global_generator/StatefulPartitionedCall/args_46"
  input: "global_generator/StatefulPartitionedCall/args_47"
  input: "global_generator/StatefulPartitionedCall/args_48"
  input: "global_generator/StatefulPartitionedCall/args_49"
  input: "global_generator/StatefulPartitionedCall/args_50"
  input: "global_generator/StatefulPartitionedCall/args_51"
  input: "global_generator/StatefulPartitionedCall/args_52"
  input: "global_generator/StatefulPartitionedCall/args_53"
  input: "global_generator/StatefulPartitionedCall/args_54"
  input: "global_generator/StatefulPartitionedCall/args_55"
  input: "global_generator/StatefulPartitionedCall/args_56"
  input: "global_generator/StatefulPartitionedCall/args_57"
  input: "global_generator/StatefulPartitionedCall/args_58"
  input: "global_generator/StatefulPartitionedCall/args_59"
  input: "global_generator/StatefulPartitionedCall/args_60"
  input: "global_generator/StatefulPartitionedCall/args_61"
  input: "global_generator/StatefulPartitionedCall/args_62"
  input: "global_generator/StatefulPartitionedCall/args_63"
  input: "global_generator/StatefulPartitionedCall/args_64"
  input: "global_generator/StatefulPartitionedCall/args_65"
  input: "global_generator/StatefulPartitionedCall/args_66"
  input: "global_generator/StatefulPartitionedCall/args_67"
  input: "global_generator/StatefulPartitionedCall/args_68"
  input: "global_generator/StatefulPartitionedCall/args_69"
  input: "global_generator/StatefulPartitionedCall/args_70"
  input: "global_generator/StatefulPartitionedCall/args_71"
  input: "global_generator/StatefulPartitionedCall/args_72"
  input: "global_generator/StatefulPartitionedCall/args_73"
  input: "global_generator/StatefulPartitionedCall/args_74"
  input: "global_generator/StatefulPartitionedCall/args_75"
  input: "global_generator/StatefulPartitionedCall/args_76"
  input: "global_generator/StatefulPartitionedCall/args_77"
  input: "global_generator/StatefulPartitionedCall/args_78"
  input: "global_generator/StatefulPartitionedCall/args_79"
  input: "global_generator/StatefulPartitionedCall/args_80"
  input: "global_generator/StatefulPartitionedCall/args_81"
  input: "global_generator/StatefulPartitionedCall/args_82"
  input: "global_generator/StatefulPartitionedCall/args_83"
  input: "global_generator/StatefulPartitionedCall/args_84"
  input: "global_generator/StatefulPartitionedCall/args_85"
  input: "global_generator/StatefulPartitionedCall/args_86"
  input: "global_generator/StatefulPartitionedCall/args_87"
  input: "global_generator/StatefulPartitionedCall/args_88"
  input: "global_generator/StatefulPartitionedCall/args_89"
  input: "global_generator/StatefulPartitionedCall/args_90"
  input: "global_generator/StatefulPartitionedCall/args_91"
  input: "global_generator/StatefulPartitionedCall/args_92"
  input: "global_generator/StatefulPartitionedCall/args_93"
  input: "global_generator/StatefulPartitionedCall/args_94"
  input: "global_generator/StatefulPartitionedCall/args_95"
  input: "global_generator/StatefulPartitionedCall/args_96"
  input: "global_generator/StatefulPartitionedCall/args_97"
  input: "global_generator/StatefulPartitionedCall/args_98"
  input: "global_generator/StatefulPartitionedCall/args_99"
  input: "global_generator/StatefulPartitionedCall/args_100"
  input: "global_generator/StatefulPartitionedCall/args_101"
  input: "global_generator/StatefulPartitionedCall/args_102"
  input: "global_generator/StatefulPartitionedCall/args_103"
  input: "global_generator/StatefulPartitionedCall/args_104"
  input: "global_generator/StatefulPartitionedCall/args_105"
  input: "global_generator/StatefulPartitionedCall/args_106"
  input: "global_generator/StatefulPartitionedCall/args_107"
  input: "global_generator/StatefulPartitionedCall/args_108"
  input: "global_generator/StatefulPartitionedCall/args_109"
  input: "global_generator/StatefulPartitionedCall/args_110"
  attr {
    key: "Tin"
    value {
      list {
        type: DT_FLOAT
        type: DT_RESOURCE
        type: DT_RESOURCE
        type: DT_RESOURCE
        type: DT_RESOURCE
        type: DT_RESOURCE
        type: DT_RESOURCE
        type: DT_RESOURCE
        type: DT_RESOURCE
        type: DT_RESOURCE
        type: DT_RESOURCE
        type: DT_RESOURCE
        type: DT_RESOURCE
        type: DT_RESOURCE
        type: DT_RESOURCE
        type: DT_RESOURCE
        type: DT_RESOURCE
        type: DT_RESOURCE
        type: DT_RESOURCE
        type: DT_RESOURCE
        type: DT_RESOURCE
        type: DT_RESOURCE
        type: DT_RESOURCE
        type: DT_RESOURCE
        type: DT_RESOURCE
        type: DT_RESOURCE
        type: DT_RESOURCE
        type: DT_RESOURCE
        type: DT_RESOURCE
        type: DT_RESOURCE
        type: DT_RESOURCE
        type: DT_RESOURCE
        type: DT_RESOURCE
        type: DT_RESOURCE
        type: DT_RESOURCE
        type: DT_RESOURCE
        type: DT_RESOURCE
        type: DT_RESOURCE
        type: DT_RESOURCE
        type: DT_RESOURCE
        type: DT_RESOURCE
        type: DT_RESOURCE
        type: DT_RESOURCE
        type: DT_RESOURCE
        type: DT_RESOURCE
        type: DT_RESOURCE
        type: DT_RESOURCE
        type: DT_RESOURCE
        type: DT_RESOURCE
        type: DT_RESOURCE
        type: DT_RESOURCE
        type: DT_RESOURCE
        type: DT_RESOURCE
        type: DT_RESOURCE
        type: DT_RESOURCE
        type: DT_RESOURCE
        type: DT_RESOURCE
        type: DT_RESOURCE
        type: DT_RESOURCE
        type: DT_RESOURCE
        type: DT_RESOURCE
        type: DT_RESOURCE
        type: DT_RESOURCE
        type: DT_RESOURCE
        type: DT_RESOURCE
        type: DT_RESOURCE
        type: DT_RESOURCE
        type: DT_RESOURCE
        type: DT_RESOURCE
        type: DT_RESOURCE
        type: DT_RESOURCE
        type: DT_RESOURCE
        type: DT_RESOURCE
        type: DT_RESOURCE
        type: DT_RESOURCE
        type: DT_RESOURCE
        type: DT_RESOURCE
        type: DT_RESOURCE
        type: DT_RESOURCE
        type: DT_RESOURCE
        type: DT_RESOURCE
        type: DT_RESOURCE
        type: DT_RESOURCE
        type: DT_RESOURCE
        type: DT_RESOURCE
        type: DT_RESOURCE
        type: DT_RESOURCE
        type: DT_RESOURCE
        type: DT_RESOURCE
        type: DT_RESOURCE
        type: DT_RESOURCE
        type: DT_RESOURCE
        type: DT_RESOURCE
        type: DT_RESOURCE
        type: DT_RESOURCE
        type: DT_RESOURCE
        type: DT_RESOURCE
        type: DT_RESOURCE
        type: DT_RESOURCE
        type: DT_RESOURCE
        type: DT_RESOURCE
        type: DT_RESOURCE
        type: DT_RESOURCE
        type: DT_RESOURCE
        type: DT_RESOURCE
        type: DT_RESOURCE
        type: DT_RESOURCE
        type: DT_RESOURCE
        type: DT_RESOURCE
        type: DT_RESOURCE
        type: DT_RESOURCE
      }
    }
  }
  attr {
    key: "Tout"
    value {
      list {
        type: DT_FLOAT
      }
    }
  }
  attr {
    key: "_gradient_op_type"
    value {
      s: "PartitionedCall-6070"
    }
  }
  attr {
    key: "config"
    value {
      s: ""
    }
  }
  attr {
    key: "config_proto"
    value {
      s: ""
    }
  }
  attr {
    key: "executor_type"
    value {
      s: ""
    }
  }
  attr {
    key: "f"
    value {
      func {
        name: "__inference_call_6069"
      }
    }
  }
}
node {
  name: "concat/axis"
  op: "Const"
  attr {
    key: "dtype"
    value {
      type: DT_INT32
    }
  }
  attr {
    key: "value"
    value {
      tensor {
        dtype: DT_INT32
        tensor_shape {
        }
        int_val: -1
      }
    }
  }
}
node {
  name: "concat"
  op: "ConcatV2"
  input: "input_label"
  input: "real_img"
  input: "concat/axis"
  attr {
    key: "N"
    value {
      i: 2
    }
  }
  attr {
    key: "T"
    value {
      type: DT_FLOAT
    }
  }
  attr {
    key: "Tidx"
    value {
      type: DT_INT32
    }
  }
}
node {
  name: "concat_1/axis"
  op: "Const"
  attr {
    key: "dtype"
    value {
      type: DT_INT32
    }
  }
  attr {
    key: "value"
    value {
      tensor {
        dtype: DT_INT32
        tensor_shape {
        }
        int_val: -1
      }
    }
  }
}
node {
  name: "concat_1"
  op: "ConcatV2"
  input: "input_label"
  input: "global_generator/StatefulPartitionedCall"
  input: "concat_1/axis"
  attr {
    key: "N"
    value {
      i: 2
    }
  }
  attr {
    key: "T"
    value {
      type: DT_FLOAT
    }
  }
  attr {
    key: "Tidx"
    value {
      type: DT_INT32
    }
  }
}
node {
  name: "MultiscaleDiscriminator/conv2d_29/Conv2D/ReadVariableOp/resource"
  op: "Placeholder"
  device: "/job:localhost/replica:0/task:0/device:GPU:0"
  attr {
    key: "dtype"
    value {
      type: DT_RESOURCE
    }
  }
  attr {
    key: "shape"
    value {
      shape {
      }
    }
  }
}
node {
  name: "MultiscaleDiscriminator/conv2d_29/Conv2D/ReadVariableOp"
  op: "ReadVariableOp"
  input: "MultiscaleDiscriminator/conv2d_29/Conv2D/ReadVariableOp/resource"
  device: "/job:localhost/replica:0/task:0/device:GPU:0"
  attr {
    key: "dtype"
    value {
      type: DT_FLOAT
    }
  }
}
node {
  name: "MultiscaleDiscriminator/conv2d_29/Conv2D"
  op: "Conv2D"
  input: "concat_1"
  input: "MultiscaleDiscriminator/conv2d_29/Conv2D/ReadVariableOp"
  attr {
    key: "T"
    value {
      type: DT_FLOAT
    }
  }
  attr {
    key: "data_format"
    value {
      s: "NHWC"
    }
  }
  attr {
    key: "dilations"
    value {
      list {
        i: 1
        i: 1
        i: 1
        i: 1
      }
    }
  }
  attr {
    key: "explicit_paddings"
    value {
      list {
      }
    }
  }
  attr {
    key: "padding"
    value {
      s: "SAME"
    }
  }
  attr {
    key: "strides"
    value {
      list {
        i: 1
        i: 2
        i: 2
        i: 1
      }
    }
  }
  attr {
    key: "use_cudnn_on_gpu"
    value {
      b: true
    }
  }
}
node {
  name: "MultiscaleDiscriminator/conv2d_29/BiasAdd/ReadVariableOp/resource"
  op: "Placeholder"
  device: "/job:localhost/replica:0/task:0/device:GPU:0"
  attr {
    key: "dtype"
    value {
      type: DT_RESOURCE
    }
  }
  attr {
    key: "shape"
    value {
      shape {
      }
    }
  }
}
node {
  name: "MultiscaleDiscriminator/conv2d_29/BiasAdd/ReadVariableOp"
  op: "ReadVariableOp"
  input: "MultiscaleDiscriminator/conv2d_29/BiasAdd/ReadVariableOp/resource"
  device: "/job:localhost/replica:0/task:0/device:GPU:0"
  attr {
    key: "dtype"
    value {
      type: DT_FLOAT
    }
  }
}
node {
  name: "MultiscaleDiscriminator/conv2d_29/BiasAdd"
  op: "BiasAdd"
  input: "MultiscaleDiscriminator/conv2d_29/Conv2D"
  input: "MultiscaleDiscriminator/conv2d_29/BiasAdd/ReadVariableOp"
  attr {
    key: "T"
    value {
      type: DT_FLOAT
    }
  }
  attr {
    key: "data_format"
    value {
      s: "NHWC"
    }
  }
}
node {
  name: "MultiscaleDiscriminator/leaky_re_lu_4/LeakyRelu"
  op: "LeakyRelu"
  input: "MultiscaleDiscriminator/conv2d_29/BiasAdd"
  attr {
    key: "T"
    value {
      type: DT_FLOAT
    }
  }
  attr {
    key: "alpha"
    value {
      f: 0.20000000298023224
    }
  }
}
node {
  name: "MultiscaleDiscriminator/conv2d_30/Conv2D/ReadVariableOp/resource"
  op: "Placeholder"
  device: "/job:localhost/replica:0/task:0/device:GPU:0"
  attr {
    key: "dtype"
    value {
      type: DT_RESOURCE
    }
  }
  attr {
    key: "shape"
    value {
      shape {
      }
    }
  }
}
node {
  name: "MultiscaleDiscriminator/conv2d_30/Conv2D/ReadVariableOp"
  op: "ReadVariableOp"
  input: "MultiscaleDiscriminator/conv2d_30/Conv2D/ReadVariableOp/resource"
  device: "/job:localhost/replica:0/task:0/device:GPU:0"
  attr {
    key: "dtype"
    value {
      type: DT_FLOAT
    }
  }
}
node {
  name: "MultiscaleDiscriminator/conv2d_30/Conv2D"
  op: "Conv2D"
  input: "MultiscaleDiscriminator/leaky_re_lu_4/LeakyRelu"
  input: "MultiscaleDiscriminator/conv2d_30/Conv2D/ReadVariableOp"
  attr {
    key: "T"
    value {
      type: DT_FLOAT
    }
  }
  attr {
    key: "data_format"
    value {
      s: "NHWC"
    }
  }
  attr {
    key: "dilations"
    value {
      list {
        i: 1
        i: 1
        i: 1
        i: 1
      }
    }
  }
  attr {
    key: "explicit_paddings"
    value {
      list {
      }
    }
  }
  attr {
    key: "padding"
    value {
      s: "SAME"
    }
  }
  attr {
    key: "strides"
    value {
      list {
        i: 1
        i: 2
        i: 2
        i: 1
      }
    }
  }
  attr {
    key: "use_cudnn_on_gpu"
    value {
      b: true
    }
  }
}
node {
  name: "MultiscaleDiscriminator/conv2d_30/BiasAdd/ReadVariableOp/resource"
  op: "Placeholder"
  device: "/job:localhost/replica:0/task:0/device:GPU:0"
  attr {
    key: "dtype"
    value {
      type: DT_RESOURCE
    }
  }
  attr {
    key: "shape"
    value {
      shape {
      }
    }
  }
}
node {
  name: "MultiscaleDiscriminator/conv2d_30/BiasAdd/ReadVariableOp"
  op: "ReadVariableOp"
  input: "MultiscaleDiscriminator/conv2d_30/BiasAdd/ReadVariableOp/resource"
  device: "/job:localhost/replica:0/task:0/device:GPU:0"
  attr {
    key: "dtype"
    value {
      type: DT_FLOAT
    }
  }
}
node {
  name: "MultiscaleDiscriminator/conv2d_30/BiasAdd"
  op: "BiasAdd"
  input: "MultiscaleDiscriminator/conv2d_30/Conv2D"
  input: "MultiscaleDiscriminator/conv2d_30/BiasAdd/ReadVariableOp"
  attr {
    key: "T"
    value {
      type: DT_FLOAT
    }
  }
  attr {
    key: "data_format"
    value {
      s: "NHWC"
    }
  }
}
node {
  name: "MultiscaleDiscriminator/instance_normalization_30/Shape"
  op: "Shape"
  input: "MultiscaleDiscriminator/conv2d_30/BiasAdd"
  attr {
    key: "T"
    value {
      type: DT_FLOAT
    }
  }
  attr {
    key: "out_type"
    value {
      type: DT_INT32
    }
  }
}
node {
  name: "MultiscaleDiscriminator/instance_normalization_30/strided_slice/stack"
  op: "Const"
  attr {
    key: "dtype"
    value {
      type: DT_INT32
    }
  }
  attr {
    key: "value"
    value {
      tensor {
        dtype: DT_INT32
        tensor_shape {
          dim {
            size: 1
          }
        }
        int_val: 0
      }
    }
  }
}
node {
  name: "MultiscaleDiscriminator/instance_normalization_30/strided_slice/stack_1"
  op: "Const"
  attr {
    key: "dtype"
    value {
      type: DT_INT32
    }
  }
  attr {
    key: "value"
    value {
      tensor {
        dtype: DT_INT32
        tensor_shape {
          dim {
            size: 1
          }
        }
        int_val: 1
      }
    }
  }
}
node {
  name: "MultiscaleDiscriminator/instance_normalization_30/strided_slice/stack_2"
  op: "Const"
  attr {
    key: "dtype"
    value {
      type: DT_INT32
    }
  }
  attr {
    key: "value"
    value {
      tensor {
        dtype: DT_INT32
        tensor_shape {
          dim {
            size: 1
          }
        }
        int_val: 1
      }
    }
  }
}
node {
  name: "MultiscaleDiscriminator/instance_normalization_30/strided_slice"
  op: "StridedSlice"
  input: "MultiscaleDiscriminator/instance_normalization_30/Shape"
  input: "MultiscaleDiscriminator/instance_normalization_30/strided_slice/stack"
  input: "MultiscaleDiscriminator/instance_normalization_30/strided_slice/stack_1"
  input: "MultiscaleDiscriminator/instance_normalization_30/strided_slice/stack_2"
  attr {
    key: "Index"
    value {
      type: DT_INT32
    }
  }
  attr {
    key: "T"
    value {
      type: DT_INT32
    }
  }
  attr {
    key: "begin_mask"
    value {
      i: 0
    }
  }
  attr {
    key: "ellipsis_mask"
    value {
      i: 0
    }
  }
  attr {
    key: "end_mask"
    value {
      i: 0
    }
  }
  attr {
    key: "new_axis_mask"
    value {
      i: 0
    }
  }
  attr {
    key: "shrink_axis_mask"
    value {
      i: 1
    }
  }
}
node {
  name: "MultiscaleDiscriminator/instance_normalization_30/strided_slice_1/stack"
  op: "Const"
  attr {
    key: "dtype"
    value {
      type: DT_INT32
    }
  }
  attr {
    key: "value"
    value {
      tensor {
        dtype: DT_INT32
        tensor_shape {
          dim {
            size: 1
          }
        }
        int_val: 1
      }
    }
  }
}
node {
  name: "MultiscaleDiscriminator/instance_normalization_30/strided_slice_1/stack_1"
  op: "Const"
  attr {
    key: "dtype"
    value {
      type: DT_INT32
    }
  }
  attr {
    key: "value"
    value {
      tensor {
        dtype: DT_INT32
        tensor_shape {
          dim {
            size: 1
          }
        }
        int_val: 2
      }
    }
  }
}
node {
  name: "MultiscaleDiscriminator/instance_normalization_30/strided_slice_1/stack_2"
  op: "Const"
  attr {
    key: "dtype"
    value {
      type: DT_INT32
    }
  }
  attr {
    key: "value"
    value {
      tensor {
        dtype: DT_INT32
        tensor_shape {
          dim {
            size: 1
          }
        }
        int_val: 1
      }
    }
  }
}
node {
  name: "MultiscaleDiscriminator/instance_normalization_30/strided_slice_1"
  op: "StridedSlice"
  input: "MultiscaleDiscriminator/instance_normalization_30/Shape"
  input: "MultiscaleDiscriminator/instance_normalization_30/strided_slice_1/stack"
  input: "MultiscaleDiscriminator/instance_normalization_30/strided_slice_1/stack_1"
  input: "MultiscaleDiscriminator/instance_normalization_30/strided_slice_1/stack_2"
  attr {
    key: "Index"
    value {
      type: DT_INT32
    }
  }
  attr {
    key: "T"
    value {
      type: DT_INT32
    }
  }
  attr {
    key: "begin_mask"
    value {
      i: 0
    }
  }
  attr {
    key: "ellipsis_mask"
    value {
      i: 0
    }
  }
  attr {
    key: "end_mask"
    value {
      i: 0
    }
  }
  attr {
    key: "new_axis_mask"
    value {
      i: 0
    }
  }
  attr {
    key: "shrink_axis_mask"
    value {
      i: 1
    }
  }
}
node {
  name: "MultiscaleDiscriminator/instance_normalization_30/strided_slice_2/stack"
  op: "Const"
  attr {
    key: "dtype"
    value {
      type: DT_INT32
    }
  }
  attr {
    key: "value"
    value {
      tensor {
        dtype: DT_INT32
        tensor_shape {
          dim {
            size: 1
          }
        }
        int_val: 2
      }
    }
  }
}
node {
  name: "MultiscaleDiscriminator/instance_normalization_30/strided_slice_2/stack_1"
  op: "Const"
  attr {
    key: "dtype"
    value {
      type: DT_INT32
    }
  }
  attr {
    key: "value"
    value {
      tensor {
        dtype: DT_INT32
        tensor_shape {
          dim {
            size: 1
          }
        }
        int_val: 3
      }
    }
  }
}
node {
  name: "MultiscaleDiscriminator/instance_normalization_30/strided_slice_2/stack_2"
  op: "Const"
  attr {
    key: "dtype"
    value {
      type: DT_INT32
    }
  }
  attr {
    key: "value"
    value {
      tensor {
        dtype: DT_INT32
        tensor_shape {
          dim {
            size: 1
          }
        }
        int_val: 1
      }
    }
  }
}
node {
  name: "MultiscaleDiscriminator/instance_normalization_30/strided_slice_2"
  op: "StridedSlice"
  input: "MultiscaleDiscriminator/instance_normalization_30/Shape"
  input: "MultiscaleDiscriminator/instance_normalization_30/strided_slice_2/stack"
  input: "MultiscaleDiscriminator/instance_normalization_30/strided_slice_2/stack_1"
  input: "MultiscaleDiscriminator/instance_normalization_30/strided_slice_2/stack_2"
  attr {
    key: "Index"
    value {
      type: DT_INT32
    }
  }
  attr {
    key: "T"
    value {
      type: DT_INT32
    }
  }
  attr {
    key: "begin_mask"
    value {
      i: 0
    }
  }
  attr {
    key: "ellipsis_mask"
    value {
      i: 0
    }
  }
  attr {
    key: "end_mask"
    value {
      i: 0
    }
  }
  attr {
    key: "new_axis_mask"
    value {
      i: 0
    }
  }
  attr {
    key: "shrink_axis_mask"
    value {
      i: 1
    }
  }
}
node {
  name: "MultiscaleDiscriminator/instance_normalization_30/strided_slice_3/stack"
  op: "Const"
  attr {
    key: "dtype"
    value {
      type: DT_INT32
    }
  }
  attr {
    key: "value"
    value {
      tensor {
        dtype: DT_INT32
        tensor_shape {
          dim {
            size: 1
          }
        }
        int_val: 3
      }
    }
  }
}
node {
  name: "MultiscaleDiscriminator/instance_normalization_30/strided_slice_3/stack_1"
  op: "Const"
  attr {
    key: "dtype"
    value {
      type: DT_INT32
    }
  }
  attr {
    key: "value"
    value {
      tensor {
        dtype: DT_INT32
        tensor_shape {
          dim {
            size: 1
          }
        }
        int_val: 4
      }
    }
  }
}
node {
  name: "MultiscaleDiscriminator/instance_normalization_30/strided_slice_3/stack_2"
  op: "Const"
  attr {
    key: "dtype"
    value {
      type: DT_INT32
    }
  }
  attr {
    key: "value"
    value {
      tensor {
        dtype: DT_INT32
        tensor_shape {
          dim {
            size: 1
          }
        }
        int_val: 1
      }
    }
  }
}
node {
  name: "MultiscaleDiscriminator/instance_normalization_30/strided_slice_3"
  op: "StridedSlice"
  input: "MultiscaleDiscriminator/instance_normalization_30/Shape"
  input: "MultiscaleDiscriminator/instance_normalization_30/strided_slice_3/stack"
  input: "MultiscaleDiscriminator/instance_normalization_30/strided_slice_3/stack_1"
  input: "MultiscaleDiscriminator/instance_normalization_30/strided_slice_3/stack_2"
  attr {
    key: "Index"
    value {
      type: DT_INT32
    }
  }
  attr {
    key: "T"
    value {
      type: DT_INT32
    }
  }
  attr {
    key: "begin_mask"
    value {
      i: 0
    }
  }
  attr {
    key: "ellipsis_mask"
    value {
      i: 0
    }
  }
  attr {
    key: "end_mask"
    value {
      i: 0
    }
  }
  attr {
    key: "new_axis_mask"
    value {
      i: 0
    }
  }
  attr {
    key: "shrink_axis_mask"
    value {
      i: 1
    }
  }
}
node {
  name: "MultiscaleDiscriminator/instance_normalization_30/stack/1"
  op: "Const"
  attr {
    key: "dtype"
    value {
      type: DT_INT32
    }
  }
  attr {
    key: "value"
    value {
      tensor {
        dtype: DT_INT32
        tensor_shape {
        }
        int_val: 128
      }
    }
  }
}
node {
  name: "MultiscaleDiscriminator/instance_normalization_30/stack/4"
  op: "Const"
  attr {
    key: "dtype"
    value {
      type: DT_INT32
    }
  }
  attr {
    key: "value"
    value {
      tensor {
        dtype: DT_INT32
        tensor_shape {
        }
        int_val: 1
      }
    }
  }
}
node {
  name: "MultiscaleDiscriminator/instance_normalization_30/stack"
  op: "Pack"
  input: "MultiscaleDiscriminator/instance_normalization_30/strided_slice"
  input: "MultiscaleDiscriminator/instance_normalization_30/stack/1"
  input: "MultiscaleDiscriminator/instance_normalization_30/strided_slice_1"
  input: "MultiscaleDiscriminator/instance_normalization_30/strided_slice_2"
  input: "MultiscaleDiscriminator/instance_normalization_30/stack/4"
  attr {
    key: "N"
    value {
      i: 5
    }
  }
  attr {
    key: "T"
    value {
      type: DT_INT32
    }
  }
  attr {
    key: "axis"
    value {
      i: 0
    }
  }
}
node {
  name: "MultiscaleDiscriminator/instance_normalization_30/Reshape"
  op: "Reshape"
  input: "MultiscaleDiscriminator/conv2d_30/BiasAdd"
  input: "MultiscaleDiscriminator/instance_normalization_30/stack"
  attr {
    key: "T"
    value {
      type: DT_FLOAT
    }
  }
  attr {
    key: "Tshape"
    value {
      type: DT_INT32
    }
  }
}
node {
  name: "MultiscaleDiscriminator/instance_normalization_30/moments/mean/reduction_indices"
  op: "Const"
  attr {
    key: "dtype"
    value {
      type: DT_INT32
    }
  }
  attr {
    key: "value"
    value {
      tensor {
        dtype: DT_INT32
        tensor_shape {
          dim {
            size: 3
          }
        }
        tensor_content: "\002\000\000\000\003\000\000\000\004\000\000\000"
      }
    }
  }
}
node {
  name: "MultiscaleDiscriminator/instance_normalization_30/moments/mean"
  op: "Mean"
  input: "MultiscaleDiscriminator/instance_normalization_30/Reshape"
  input: "MultiscaleDiscriminator/instance_normalization_30/moments/mean/reduction_indices"
  attr {
    key: "T"
    value {
      type: DT_FLOAT
    }
  }
  attr {
    key: "Tidx"
    value {
      type: DT_INT32
    }
  }
  attr {
    key: "keep_dims"
    value {
      b: true
    }
  }
}
node {
  name: "MultiscaleDiscriminator/instance_normalization_30/moments/StopGradient"
  op: "StopGradient"
  input: "MultiscaleDiscriminator/instance_normalization_30/moments/mean"
  attr {
    key: "T"
    value {
      type: DT_FLOAT
    }
  }
}
node {
  name: "MultiscaleDiscriminator/instance_normalization_30/moments/SquaredDifference"
  op: "SquaredDifference"
  input: "MultiscaleDiscriminator/instance_normalization_30/Reshape"
  input: "MultiscaleDiscriminator/instance_normalization_30/moments/StopGradient"
  attr {
    key: "T"
    value {
      type: DT_FLOAT
    }
  }
}
node {
  name: "MultiscaleDiscriminator/instance_normalization_30/moments/variance/reduction_indices"
  op: "Const"
  attr {
    key: "dtype"
    value {
      type: DT_INT32
    }
  }
  attr {
    key: "value"
    value {
      tensor {
        dtype: DT_INT32
        tensor_shape {
          dim {
            size: 3
          }
        }
        tensor_content: "\002\000\000\000\003\000\000\000\004\000\000\000"
      }
    }
  }
}
node {
  name: "MultiscaleDiscriminator/instance_normalization_30/moments/variance"
  op: "Mean"
  input: "MultiscaleDiscriminator/instance_normalization_30/moments/SquaredDifference"
  input: "MultiscaleDiscriminator/instance_normalization_30/moments/variance/reduction_indices"
  attr {
    key: "T"
    value {
      type: DT_FLOAT
    }
  }
  attr {
    key: "Tidx"
    value {
      type: DT_INT32
    }
  }
  attr {
    key: "keep_dims"
    value {
      b: true
    }
  }
}
node {
  name: "MultiscaleDiscriminator/instance_normalization_30/Reshape_1/ReadVariableOp/resource"
  op: "Placeholder"
  device: "/job:localhost/replica:0/task:0/device:GPU:0"
  attr {
    key: "dtype"
    value {
      type: DT_RESOURCE
    }
  }
  attr {
    key: "shape"
    value {
      shape {
      }
    }
  }
}
node {
  name: "MultiscaleDiscriminator/instance_normalization_30/Reshape_1/ReadVariableOp"
  op: "ReadVariableOp"
  input: "MultiscaleDiscriminator/instance_normalization_30/Reshape_1/ReadVariableOp/resource"
  device: "/job:localhost/replica:0/task:0/device:GPU:0"
  attr {
    key: "dtype"
    value {
      type: DT_FLOAT
    }
  }
}
node {
  name: "MultiscaleDiscriminator/instance_normalization_30/Reshape_1/shape"
  op: "Const"
  attr {
    key: "dtype"
    value {
      type: DT_INT32
    }
  }
  attr {
    key: "value"
    value {
      tensor {
        dtype: DT_INT32
        tensor_shape {
          dim {
            size: 5
          }
        }
        tensor_content: "\001\000\000\000\200\000\000\000\001\000\000\000\001\000\000\000\001\000\000\000"
      }
    }
  }
}
node {
  name: "MultiscaleDiscriminator/instance_normalization_30/Reshape_1"
  op: "Reshape"
  input: "MultiscaleDiscriminator/instance_normalization_30/Reshape_1/ReadVariableOp"
  input: "MultiscaleDiscriminator/instance_normalization_30/Reshape_1/shape"
  attr {
    key: "T"
    value {
      type: DT_FLOAT
    }
  }
  attr {
    key: "Tshape"
    value {
      type: DT_INT32
    }
  }
}
node {
  name: "MultiscaleDiscriminator/instance_normalization_30/Reshape_2/ReadVariableOp/resource"
  op: "Placeholder"
  device: "/job:localhost/replica:0/task:0/device:GPU:0"
  attr {
    key: "dtype"
    value {
      type: DT_RESOURCE
    }
  }
  attr {
    key: "shape"
    value {
      shape {
      }
    }
  }
}
node {
  name: "MultiscaleDiscriminator/instance_normalization_30/Reshape_2/ReadVariableOp"
  op: "ReadVariableOp"
  input: "MultiscaleDiscriminator/instance_normalization_30/Reshape_2/ReadVariableOp/resource"
  device: "/job:localhost/replica:0/task:0/device:GPU:0"
  attr {
    key: "dtype"
    value {
      type: DT_FLOAT
    }
  }
}
node {
  name: "MultiscaleDiscriminator/instance_normalization_30/Reshape_2/shape"
  op: "Const"
  attr {
    key: "dtype"
    value {
      type: DT_INT32
    }
  }
  attr {
    key: "value"
    value {
      tensor {
        dtype: DT_INT32
        tensor_shape {
          dim {
            size: 5
          }
        }
        tensor_content: "\001\000\000\000\200\000\000\000\001\000\000\000\001\000\000\000\001\000\000\000"
      }
    }
  }
}
node {
  name: "MultiscaleDiscriminator/instance_normalization_30/Reshape_2"
  op: "Reshape"
  input: "MultiscaleDiscriminator/instance_normalization_30/Reshape_2/ReadVariableOp"
  input: "MultiscaleDiscriminator/instance_normalization_30/Reshape_2/shape"
  attr {
    key: "T"
    value {
      type: DT_FLOAT
    }
  }
  attr {
    key: "Tshape"
    value {
      type: DT_INT32
    }
  }
}
node {
  name: "MultiscaleDiscriminator/instance_normalization_30/batchnorm/add/y"
  op: "Const"
  attr {
    key: "dtype"
    value {
      type: DT_FLOAT
    }
  }
  attr {
    key: "value"
    value {
      tensor {
        dtype: DT_FLOAT
        tensor_shape {
        }
        float_val: 9.999999747378752e-06
      }
    }
  }
}
node {
  name: "MultiscaleDiscriminator/instance_normalization_30/batchnorm/add"
  op: "Add"
  input: "MultiscaleDiscriminator/instance_normalization_30/moments/variance"
  input: "MultiscaleDiscriminator/instance_normalization_30/batchnorm/add/y"
  attr {
    key: "T"
    value {
      type: DT_FLOAT
    }
  }
}
node {
  name: "MultiscaleDiscriminator/instance_normalization_30/batchnorm/Rsqrt"
  op: "Rsqrt"
  input: "MultiscaleDiscriminator/instance_normalization_30/batchnorm/add"
  attr {
    key: "T"
    value {
      type: DT_FLOAT
    }
  }
}
node {
  name: "MultiscaleDiscriminator/instance_normalization_30/batchnorm/mul"
  op: "Mul"
  input: "MultiscaleDiscriminator/instance_normalization_30/batchnorm/Rsqrt"
  input: "MultiscaleDiscriminator/instance_normalization_30/Reshape_1"
  attr {
    key: "T"
    value {
      type: DT_FLOAT
    }
  }
}
node {
  name: "MultiscaleDiscriminator/instance_normalization_30/batchnorm/mul_1"
  op: "Mul"
  input: "MultiscaleDiscriminator/instance_normalization_30/Reshape"
  input: "MultiscaleDiscriminator/instance_normalization_30/batchnorm/mul"
  attr {
    key: "T"
    value {
      type: DT_FLOAT
    }
  }
}
node {
  name: "MultiscaleDiscriminator/instance_normalization_30/batchnorm/mul_2"
  op: "Mul"
  input: "MultiscaleDiscriminator/instance_normalization_30/moments/mean"
  input: "MultiscaleDiscriminator/instance_normalization_30/batchnorm/mul"
  attr {
    key: "T"
    value {
      type: DT_FLOAT
    }
  }
}
node {
  name: "MultiscaleDiscriminator/instance_normalization_30/batchnorm/sub"
  op: "Sub"
  input: "MultiscaleDiscriminator/instance_normalization_30/Reshape_2"
  input: "MultiscaleDiscriminator/instance_normalization_30/batchnorm/mul_2"
  attr {
    key: "T"
    value {
      type: DT_FLOAT
    }
  }
}
node {
  name: "MultiscaleDiscriminator/instance_normalization_30/batchnorm/add_1"
  op: "Add"
  input: "MultiscaleDiscriminator/instance_normalization_30/batchnorm/mul_1"
  input: "MultiscaleDiscriminator/instance_normalization_30/batchnorm/sub"
  attr {
    key: "T"
    value {
      type: DT_FLOAT
    }
  }
}
node {
  name: "MultiscaleDiscriminator/instance_normalization_30/Reshape_3"
  op: "Reshape"
  input: "MultiscaleDiscriminator/instance_normalization_30/batchnorm/add_1"
  input: "MultiscaleDiscriminator/instance_normalization_30/Shape"
  attr {
    key: "T"
    value {
      type: DT_FLOAT
    }
  }
  attr {
    key: "Tshape"
    value {
      type: DT_INT32
    }
  }
}
node {
  name: "MultiscaleDiscriminator/leaky_re_lu_5/LeakyRelu"
  op: "LeakyRelu"
  input: "MultiscaleDiscriminator/instance_normalization_30/Reshape_3"
  attr {
    key: "T"
    value {
      type: DT_FLOAT
    }
  }
  attr {
    key: "alpha"
    value {
      f: 0.20000000298023224
    }
  }
}
node {
  name: "MultiscaleDiscriminator/average_pooling2d/AvgPool"
  op: "AvgPool"
  input: "concat_1"
  attr {
    key: "T"
    value {
      type: DT_FLOAT
    }
  }
  attr {
    key: "data_format"
    value {
      s: "NHWC"
    }
  }
  attr {
    key: "ksize"
    value {
      list {
        i: 1
        i: 3
        i: 3
        i: 1
      }
    }
  }
  attr {
    key: "padding"
    value {
      s: "SAME"
    }
  }
  attr {
    key: "strides"
    value {
      list {
        i: 1
        i: 2
        i: 2
        i: 1
      }
    }
  }
}
node {
  name: "MultiscaleDiscriminator/conv2d_24/Conv2D/ReadVariableOp/resource"
  op: "Placeholder"
  device: "/job:localhost/replica:0/task:0/device:GPU:0"
  attr {
    key: "dtype"
    value {
      type: DT_RESOURCE
    }
  }
  attr {
    key: "shape"
    value {
      shape {
      }
    }
  }
}
node {
  name: "MultiscaleDiscriminator/conv2d_24/Conv2D/ReadVariableOp"
  op: "ReadVariableOp"
  input: "MultiscaleDiscriminator/conv2d_24/Conv2D/ReadVariableOp/resource"
  device: "/job:localhost/replica:0/task:0/device:GPU:0"
  attr {
    key: "dtype"
    value {
      type: DT_FLOAT
    }
  }
}
node {
  name: "MultiscaleDiscriminator/conv2d_24/Conv2D"
  op: "Conv2D"
  input: "MultiscaleDiscriminator/average_pooling2d/AvgPool"
  input: "MultiscaleDiscriminator/conv2d_24/Conv2D/ReadVariableOp"
  attr {
    key: "T"
    value {
      type: DT_FLOAT
    }
  }
  attr {
    key: "data_format"
    value {
      s: "NHWC"
    }
  }
  attr {
    key: "dilations"
    value {
      list {
        i: 1
        i: 1
        i: 1
        i: 1
      }
    }
  }
  attr {
    key: "explicit_paddings"
    value {
      list {
      }
    }
  }
  attr {
    key: "padding"
    value {
      s: "SAME"
    }
  }
  attr {
    key: "strides"
    value {
      list {
        i: 1
        i: 2
        i: 2
        i: 1
      }
    }
  }
  attr {
    key: "use_cudnn_on_gpu"
    value {
      b: true
    }
  }
}
node {
  name: "MultiscaleDiscriminator/conv2d_24/BiasAdd/ReadVariableOp/resource"
  op: "Placeholder"
  device: "/job:localhost/replica:0/task:0/device:GPU:0"
  attr {
    key: "dtype"
    value {
      type: DT_RESOURCE
    }
  }
  attr {
    key: "shape"
    value {
      shape {
      }
    }
  }
}
node {
  name: "MultiscaleDiscriminator/conv2d_24/BiasAdd/ReadVariableOp"
  op: "ReadVariableOp"
  input: "MultiscaleDiscriminator/conv2d_24/BiasAdd/ReadVariableOp/resource"
  device: "/job:localhost/replica:0/task:0/device:GPU:0"
  attr {
    key: "dtype"
    value {
      type: DT_FLOAT
    }
  }
}
node {
  name: "MultiscaleDiscriminator/conv2d_24/BiasAdd"
  op: "BiasAdd"
  input: "MultiscaleDiscriminator/conv2d_24/Conv2D"
  input: "MultiscaleDiscriminator/conv2d_24/BiasAdd/ReadVariableOp"
  attr {
    key: "T"
    value {
      type: DT_FLOAT
    }
  }
  attr {
    key: "data_format"
    value {
      s: "NHWC"
    }
  }
}
node {
  name: "MultiscaleDiscriminator/leaky_re_lu/LeakyRelu"
  op: "LeakyRelu"
  input: "MultiscaleDiscriminator/conv2d_24/BiasAdd"
  attr {
    key: "T"
    value {
      type: DT_FLOAT
    }
  }
  attr {
    key: "alpha"
    value {
      f: 0.20000000298023224
    }
  }
}
node {
  name: "MultiscaleDiscriminator/conv2d_25/Conv2D/ReadVariableOp/resource"
  op: "Placeholder"
  device: "/job:localhost/replica:0/task:0/device:GPU:0"
  attr {
    key: "dtype"
    value {
      type: DT_RESOURCE
    }
  }
  attr {
    key: "shape"
    value {
      shape {
      }
    }
  }
}
node {
  name: "MultiscaleDiscriminator/conv2d_25/Conv2D/ReadVariableOp"
  op: "ReadVariableOp"
  input: "MultiscaleDiscriminator/conv2d_25/Conv2D/ReadVariableOp/resource"
  device: "/job:localhost/replica:0/task:0/device:GPU:0"
  attr {
    key: "dtype"
    value {
      type: DT_FLOAT
    }
  }
}
node {
  name: "MultiscaleDiscriminator/conv2d_25/Conv2D"
  op: "Conv2D"
  input: "MultiscaleDiscriminator/leaky_re_lu/LeakyRelu"
  input: "MultiscaleDiscriminator/conv2d_25/Conv2D/ReadVariableOp"
  attr {
    key: "T"
    value {
      type: DT_FLOAT
    }
  }
  attr {
    key: "data_format"
    value {
      s: "NHWC"
    }
  }
  attr {
    key: "dilations"
    value {
      list {
        i: 1
        i: 1
        i: 1
        i: 1
      }
    }
  }
  attr {
    key: "explicit_paddings"
    value {
      list {
      }
    }
  }
  attr {
    key: "padding"
    value {
      s: "SAME"
    }
  }
  attr {
    key: "strides"
    value {
      list {
        i: 1
        i: 2
        i: 2
        i: 1
      }
    }
  }
  attr {
    key: "use_cudnn_on_gpu"
    value {
      b: true
    }
  }
}
node {
  name: "MultiscaleDiscriminator/conv2d_25/BiasAdd/ReadVariableOp/resource"
  op: "Placeholder"
  device: "/job:localhost/replica:0/task:0/device:GPU:0"
  attr {
    key: "dtype"
    value {
      type: DT_RESOURCE
    }
  }
  attr {
    key: "shape"
    value {
      shape {
      }
    }
  }
}
node {
  name: "MultiscaleDiscriminator/conv2d_25/BiasAdd/ReadVariableOp"
  op: "ReadVariableOp"
  input: "MultiscaleDiscriminator/conv2d_25/BiasAdd/ReadVariableOp/resource"
  device: "/job:localhost/replica:0/task:0/device:GPU:0"
  attr {
    key: "dtype"
    value {
      type: DT_FLOAT
    }
  }
}
node {
  name: "MultiscaleDiscriminator/conv2d_25/BiasAdd"
  op: "BiasAdd"
  input: "MultiscaleDiscriminator/conv2d_25/Conv2D"
  input: "MultiscaleDiscriminator/conv2d_25/BiasAdd/ReadVariableOp"
  attr {
    key: "T"
    value {
      type: DT_FLOAT
    }
  }
  attr {
    key: "data_format"
    value {
      s: "NHWC"
    }
  }
}
node {
  name: "MultiscaleDiscriminator/instance_normalization_27/Shape"
  op: "Shape"
  input: "MultiscaleDiscriminator/conv2d_25/BiasAdd"
  attr {
    key: "T"
    value {
      type: DT_FLOAT
    }
  }
  attr {
    key: "out_type"
    value {
      type: DT_INT32
    }
  }
}
node {
  name: "MultiscaleDiscriminator/instance_normalization_27/strided_slice/stack"
  op: "Const"
  attr {
    key: "dtype"
    value {
      type: DT_INT32
    }
  }
  attr {
    key: "value"
    value {
      tensor {
        dtype: DT_INT32
        tensor_shape {
          dim {
            size: 1
          }
        }
        int_val: 0
      }
    }
  }
}
node {
  name: "MultiscaleDiscriminator/instance_normalization_27/strided_slice/stack_1"
  op: "Const"
  attr {
    key: "dtype"
    value {
      type: DT_INT32
    }
  }
  attr {
    key: "value"
    value {
      tensor {
        dtype: DT_INT32
        tensor_shape {
          dim {
            size: 1
          }
        }
        int_val: 1
      }
    }
  }
}
node {
  name: "MultiscaleDiscriminator/instance_normalization_27/strided_slice/stack_2"
  op: "Const"
  attr {
    key: "dtype"
    value {
      type: DT_INT32
    }
  }
  attr {
    key: "value"
    value {
      tensor {
        dtype: DT_INT32
        tensor_shape {
          dim {
            size: 1
          }
        }
        int_val: 1
      }
    }
  }
}
node {
  name: "MultiscaleDiscriminator/instance_normalization_27/strided_slice"
  op: "StridedSlice"
  input: "MultiscaleDiscriminator/instance_normalization_27/Shape"
  input: "MultiscaleDiscriminator/instance_normalization_27/strided_slice/stack"
  input: "MultiscaleDiscriminator/instance_normalization_27/strided_slice/stack_1"
  input: "MultiscaleDiscriminator/instance_normalization_27/strided_slice/stack_2"
  attr {
    key: "Index"
    value {
      type: DT_INT32
    }
  }
  attr {
    key: "T"
    value {
      type: DT_INT32
    }
  }
  attr {
    key: "begin_mask"
    value {
      i: 0
    }
  }
  attr {
    key: "ellipsis_mask"
    value {
      i: 0
    }
  }
  attr {
    key: "end_mask"
    value {
      i: 0
    }
  }
  attr {
    key: "new_axis_mask"
    value {
      i: 0
    }
  }
  attr {
    key: "shrink_axis_mask"
    value {
      i: 1
    }
  }
}
node {
  name: "MultiscaleDiscriminator/instance_normalization_27/strided_slice_1/stack"
  op: "Const"
  attr {
    key: "dtype"
    value {
      type: DT_INT32
    }
  }
  attr {
    key: "value"
    value {
      tensor {
        dtype: DT_INT32
        tensor_shape {
          dim {
            size: 1
          }
        }
        int_val: 1
      }
    }
  }
}
node {
  name: "MultiscaleDiscriminator/instance_normalization_27/strided_slice_1/stack_1"
  op: "Const"
  attr {
    key: "dtype"
    value {
      type: DT_INT32
    }
  }
  attr {
    key: "value"
    value {
      tensor {
        dtype: DT_INT32
        tensor_shape {
          dim {
            size: 1
          }
        }
        int_val: 2
      }
    }
  }
}
node {
  name: "MultiscaleDiscriminator/instance_normalization_27/strided_slice_1/stack_2"
  op: "Const"
  attr {
    key: "dtype"
    value {
      type: DT_INT32
    }
  }
  attr {
    key: "value"
    value {
      tensor {
        dtype: DT_INT32
        tensor_shape {
          dim {
            size: 1
          }
        }
        int_val: 1
      }
    }
  }
}
node {
  name: "MultiscaleDiscriminator/instance_normalization_27/strided_slice_1"
  op: "StridedSlice"
  input: "MultiscaleDiscriminator/instance_normalization_27/Shape"
  input: "MultiscaleDiscriminator/instance_normalization_27/strided_slice_1/stack"
  input: "MultiscaleDiscriminator/instance_normalization_27/strided_slice_1/stack_1"
  input: "MultiscaleDiscriminator/instance_normalization_27/strided_slice_1/stack_2"
  attr {
    key: "Index"
    value {
      type: DT_INT32
    }
  }
  attr {
    key: "T"
    value {
      type: DT_INT32
    }
  }
  attr {
    key: "begin_mask"
    value {
      i: 0
    }
  }
  attr {
    key: "ellipsis_mask"
    value {
      i: 0
    }
  }
  attr {
    key: "end_mask"
    value {
      i: 0
    }
  }
  attr {
    key: "new_axis_mask"
    value {
      i: 0
    }
  }
  attr {
    key: "shrink_axis_mask"
    value {
      i: 1
    }
  }
}
node {
  name: "MultiscaleDiscriminator/instance_normalization_27/strided_slice_2/stack"
  op: "Const"
  attr {
    key: "dtype"
    value {
      type: DT_INT32
    }
  }
  attr {
    key: "value"
    value {
      tensor {
        dtype: DT_INT32
        tensor_shape {
          dim {
            size: 1
          }
        }
        int_val: 2
      }
    }
  }
}
node {
  name: "MultiscaleDiscriminator/instance_normalization_27/strided_slice_2/stack_1"
  op: "Const"
  attr {
    key: "dtype"
    value {
      type: DT_INT32
    }
  }
  attr {
    key: "value"
    value {
      tensor {
        dtype: DT_INT32
        tensor_shape {
          dim {
            size: 1
          }
        }
        int_val: 3
      }
    }
  }
}
node {
  name: "MultiscaleDiscriminator/instance_normalization_27/strided_slice_2/stack_2"
  op: "Const"
  attr {
    key: "dtype"
    value {
      type: DT_INT32
    }
  }
  attr {
    key: "value"
    value {
      tensor {
        dtype: DT_INT32
        tensor_shape {
          dim {
            size: 1
          }
        }
        int_val: 1
      }
    }
  }
}
node {
  name: "MultiscaleDiscriminator/instance_normalization_27/strided_slice_2"
  op: "StridedSlice"
  input: "MultiscaleDiscriminator/instance_normalization_27/Shape"
  input: "MultiscaleDiscriminator/instance_normalization_27/strided_slice_2/stack"
  input: "MultiscaleDiscriminator/instance_normalization_27/strided_slice_2/stack_1"
  input: "MultiscaleDiscriminator/instance_normalization_27/strided_slice_2/stack_2"
  attr {
    key: "Index"
    value {
      type: DT_INT32
    }
  }
  attr {
    key: "T"
    value {
      type: DT_INT32
    }
  }
  attr {
    key: "begin_mask"
    value {
      i: 0
    }
  }
  attr {
    key: "ellipsis_mask"
    value {
      i: 0
    }
  }
  attr {
    key: "end_mask"
    value {
      i: 0
    }
  }
  attr {
    key: "new_axis_mask"
    value {
      i: 0
    }
  }
  attr {
    key: "shrink_axis_mask"
    value {
      i: 1
    }
  }
}
node {
  name: "MultiscaleDiscriminator/instance_normalization_27/strided_slice_3/stack"
  op: "Const"
  attr {
    key: "dtype"
    value {
      type: DT_INT32
    }
  }
  attr {
    key: "value"
    value {
      tensor {
        dtype: DT_INT32
        tensor_shape {
          dim {
            size: 1
          }
        }
        int_val: 3
      }
    }
  }
}
node {
  name: "MultiscaleDiscriminator/instance_normalization_27/strided_slice_3/stack_1"
  op: "Const"
  attr {
    key: "dtype"
    value {
      type: DT_INT32
    }
  }
  attr {
    key: "value"
    value {
      tensor {
        dtype: DT_INT32
        tensor_shape {
          dim {
            size: 1
          }
        }
        int_val: 4
      }
    }
  }
}
node {
  name: "MultiscaleDiscriminator/instance_normalization_27/strided_slice_3/stack_2"
  op: "Const"
  attr {
    key: "dtype"
    value {
      type: DT_INT32
    }
  }
  attr {
    key: "value"
    value {
      tensor {
        dtype: DT_INT32
        tensor_shape {
          dim {
            size: 1
          }
        }
        int_val: 1
      }
    }
  }
}
node {
  name: "MultiscaleDiscriminator/instance_normalization_27/strided_slice_3"
  op: "StridedSlice"
  input: "MultiscaleDiscriminator/instance_normalization_27/Shape"
  input: "MultiscaleDiscriminator/instance_normalization_27/strided_slice_3/stack"
  input: "MultiscaleDiscriminator/instance_normalization_27/strided_slice_3/stack_1"
  input: "MultiscaleDiscriminator/instance_normalization_27/strided_slice_3/stack_2"
  attr {
    key: "Index"
    value {
      type: DT_INT32
    }
  }
  attr {
    key: "T"
    value {
      type: DT_INT32
    }
  }
  attr {
    key: "begin_mask"
    value {
      i: 0
    }
  }
  attr {
    key: "ellipsis_mask"
    value {
      i: 0
    }
  }
  attr {
    key: "end_mask"
    value {
      i: 0
    }
  }
  attr {
    key: "new_axis_mask"
    value {
      i: 0
    }
  }
  attr {
    key: "shrink_axis_mask"
    value {
      i: 1
    }
  }
}
node {
  name: "MultiscaleDiscriminator/instance_normalization_27/stack/1"
  op: "Const"
  attr {
    key: "dtype"
    value {
      type: DT_INT32
    }
  }
  attr {
    key: "value"
    value {
      tensor {
        dtype: DT_INT32
        tensor_shape {
        }
        int_val: 128
      }
    }
  }
}
node {
  name: "MultiscaleDiscriminator/instance_normalization_27/stack/4"
  op: "Const"
  attr {
    key: "dtype"
    value {
      type: DT_INT32
    }
  }
  attr {
    key: "value"
    value {
      tensor {
        dtype: DT_INT32
        tensor_shape {
        }
        int_val: 1
      }
    }
  }
}
node {
  name: "MultiscaleDiscriminator/instance_normalization_27/stack"
  op: "Pack"
  input: "MultiscaleDiscriminator/instance_normalization_27/strided_slice"
  input: "MultiscaleDiscriminator/instance_normalization_27/stack/1"
  input: "MultiscaleDiscriminator/instance_normalization_27/strided_slice_1"
  input: "MultiscaleDiscriminator/instance_normalization_27/strided_slice_2"
  input: "MultiscaleDiscriminator/instance_normalization_27/stack/4"
  attr {
    key: "N"
    value {
      i: 5
    }
  }
  attr {
    key: "T"
    value {
      type: DT_INT32
    }
  }
  attr {
    key: "axis"
    value {
      i: 0
    }
  }
}
node {
  name: "MultiscaleDiscriminator/instance_normalization_27/Reshape"
  op: "Reshape"
  input: "MultiscaleDiscriminator/conv2d_25/BiasAdd"
  input: "MultiscaleDiscriminator/instance_normalization_27/stack"
  attr {
    key: "T"
    value {
      type: DT_FLOAT
    }
  }
  attr {
    key: "Tshape"
    value {
      type: DT_INT32
    }
  }
}
node {
  name: "MultiscaleDiscriminator/instance_normalization_27/moments/mean/reduction_indices"
  op: "Const"
  attr {
    key: "dtype"
    value {
      type: DT_INT32
    }
  }
  attr {
    key: "value"
    value {
      tensor {
        dtype: DT_INT32
        tensor_shape {
          dim {
            size: 3
          }
        }
        tensor_content: "\002\000\000\000\003\000\000\000\004\000\000\000"
      }
    }
  }
}
node {
  name: "MultiscaleDiscriminator/instance_normalization_27/moments/mean"
  op: "Mean"
  input: "MultiscaleDiscriminator/instance_normalization_27/Reshape"
  input: "MultiscaleDiscriminator/instance_normalization_27/moments/mean/reduction_indices"
  attr {
    key: "T"
    value {
      type: DT_FLOAT
    }
  }
  attr {
    key: "Tidx"
    value {
      type: DT_INT32
    }
  }
  attr {
    key: "keep_dims"
    value {
      b: true
    }
  }
}
node {
  name: "MultiscaleDiscriminator/instance_normalization_27/moments/StopGradient"
  op: "StopGradient"
  input: "MultiscaleDiscriminator/instance_normalization_27/moments/mean"
  attr {
    key: "T"
    value {
      type: DT_FLOAT
    }
  }
}
node {
  name: "MultiscaleDiscriminator/instance_normalization_27/moments/SquaredDifference"
  op: "SquaredDifference"
  input: "MultiscaleDiscriminator/instance_normalization_27/Reshape"
  input: "MultiscaleDiscriminator/instance_normalization_27/moments/StopGradient"
  attr {
    key: "T"
    value {
      type: DT_FLOAT
    }
  }
}
node {
  name: "MultiscaleDiscriminator/instance_normalization_27/moments/variance/reduction_indices"
  op: "Const"
  attr {
    key: "dtype"
    value {
      type: DT_INT32
    }
  }
  attr {
    key: "value"
    value {
      tensor {
        dtype: DT_INT32
        tensor_shape {
          dim {
            size: 3
          }
        }
        tensor_content: "\002\000\000\000\003\000\000\000\004\000\000\000"
      }
    }
  }
}
node {
  name: "MultiscaleDiscriminator/instance_normalization_27/moments/variance"
  op: "Mean"
  input: "MultiscaleDiscriminator/instance_normalization_27/moments/SquaredDifference"
  input: "MultiscaleDiscriminator/instance_normalization_27/moments/variance/reduction_indices"
  attr {
    key: "T"
    value {
      type: DT_FLOAT
    }
  }
  attr {
    key: "Tidx"
    value {
      type: DT_INT32
    }
  }
  attr {
    key: "keep_dims"
    value {
      b: true
    }
  }
}
node {
  name: "MultiscaleDiscriminator/instance_normalization_27/Reshape_1/ReadVariableOp/resource"
  op: "Placeholder"
  device: "/job:localhost/replica:0/task:0/device:GPU:0"
  attr {
    key: "dtype"
    value {
      type: DT_RESOURCE
    }
  }
  attr {
    key: "shape"
    value {
      shape {
      }
    }
  }
}
node {
  name: "MultiscaleDiscriminator/instance_normalization_27/Reshape_1/ReadVariableOp"
  op: "ReadVariableOp"
  input: "MultiscaleDiscriminator/instance_normalization_27/Reshape_1/ReadVariableOp/resource"
  device: "/job:localhost/replica:0/task:0/device:GPU:0"
  attr {
    key: "dtype"
    value {
      type: DT_FLOAT
    }
  }
}
node {
  name: "MultiscaleDiscriminator/instance_normalization_27/Reshape_1/shape"
  op: "Const"
  attr {
    key: "dtype"
    value {
      type: DT_INT32
    }
  }
  attr {
    key: "value"
    value {
      tensor {
        dtype: DT_INT32
        tensor_shape {
          dim {
            size: 5
          }
        }
        tensor_content: "\001\000\000\000\200\000\000\000\001\000\000\000\001\000\000\000\001\000\000\000"
      }
    }
  }
}
node {
  name: "MultiscaleDiscriminator/instance_normalization_27/Reshape_1"
  op: "Reshape"
  input: "MultiscaleDiscriminator/instance_normalization_27/Reshape_1/ReadVariableOp"
  input: "MultiscaleDiscriminator/instance_normalization_27/Reshape_1/shape"
  attr {
    key: "T"
    value {
      type: DT_FLOAT
    }
  }
  attr {
    key: "Tshape"
    value {
      type: DT_INT32
    }
  }
}
node {
  name: "MultiscaleDiscriminator/instance_normalization_27/Reshape_2/ReadVariableOp/resource"
  op: "Placeholder"
  device: "/job:localhost/replica:0/task:0/device:GPU:0"
  attr {
    key: "dtype"
    value {
      type: DT_RESOURCE
    }
  }
  attr {
    key: "shape"
    value {
      shape {
      }
    }
  }
}
node {
  name: "MultiscaleDiscriminator/instance_normalization_27/Reshape_2/ReadVariableOp"
  op: "ReadVariableOp"
  input: "MultiscaleDiscriminator/instance_normalization_27/Reshape_2/ReadVariableOp/resource"
  device: "/job:localhost/replica:0/task:0/device:GPU:0"
  attr {
    key: "dtype"
    value {
      type: DT_FLOAT
    }
  }
}
node {
  name: "MultiscaleDiscriminator/instance_normalization_27/Reshape_2/shape"
  op: "Const"
  attr {
    key: "dtype"
    value {
      type: DT_INT32
    }
  }
  attr {
    key: "value"
    value {
      tensor {
        dtype: DT_INT32
        tensor_shape {
          dim {
            size: 5
          }
        }
        tensor_content: "\001\000\000\000\200\000\000\000\001\000\000\000\001\000\000\000\001\000\000\000"
      }
    }
  }
}
node {
  name: "MultiscaleDiscriminator/instance_normalization_27/Reshape_2"
  op: "Reshape"
  input: "MultiscaleDiscriminator/instance_normalization_27/Reshape_2/ReadVariableOp"
  input: "MultiscaleDiscriminator/instance_normalization_27/Reshape_2/shape"
  attr {
    key: "T"
    value {
      type: DT_FLOAT
    }
  }
  attr {
    key: "Tshape"
    value {
      type: DT_INT32
    }
  }
}
node {
  name: "MultiscaleDiscriminator/instance_normalization_27/batchnorm/add/y"
  op: "Const"
  attr {
    key: "dtype"
    value {
      type: DT_FLOAT
    }
  }
  attr {
    key: "value"
    value {
      tensor {
        dtype: DT_FLOAT
        tensor_shape {
        }
        float_val: 9.999999747378752e-06
      }
    }
  }
}
node {
  name: "MultiscaleDiscriminator/instance_normalization_27/batchnorm/add"
  op: "Add"
  input: "MultiscaleDiscriminator/instance_normalization_27/moments/variance"
  input: "MultiscaleDiscriminator/instance_normalization_27/batchnorm/add/y"
  attr {
    key: "T"
    value {
      type: DT_FLOAT
    }
  }
}
node {
  name: "MultiscaleDiscriminator/instance_normalization_27/batchnorm/Rsqrt"
  op: "Rsqrt"
  input: "MultiscaleDiscriminator/instance_normalization_27/batchnorm/add"
  attr {
    key: "T"
    value {
      type: DT_FLOAT
    }
  }
}
node {
  name: "MultiscaleDiscriminator/instance_normalization_27/batchnorm/mul"
  op: "Mul"
  input: "MultiscaleDiscriminator/instance_normalization_27/batchnorm/Rsqrt"
  input: "MultiscaleDiscriminator/instance_normalization_27/Reshape_1"
  attr {
    key: "T"
    value {
      type: DT_FLOAT
    }
  }
}
node {
  name: "MultiscaleDiscriminator/instance_normalization_27/batchnorm/mul_1"
  op: "Mul"
  input: "MultiscaleDiscriminator/instance_normalization_27/Reshape"
  input: "MultiscaleDiscriminator/instance_normalization_27/batchnorm/mul"
  attr {
    key: "T"
    value {
      type: DT_FLOAT
    }
  }
}
node {
  name: "MultiscaleDiscriminator/instance_normalization_27/batchnorm/mul_2"
  op: "Mul"
  input: "MultiscaleDiscriminator/instance_normalization_27/moments/mean"
  input: "MultiscaleDiscriminator/instance_normalization_27/batchnorm/mul"
  attr {
    key: "T"
    value {
      type: DT_FLOAT
    }
  }
}
node {
  name: "MultiscaleDiscriminator/instance_normalization_27/batchnorm/sub"
  op: "Sub"
  input: "MultiscaleDiscriminator/instance_normalization_27/Reshape_2"
  input: "MultiscaleDiscriminator/instance_normalization_27/batchnorm/mul_2"
  attr {
    key: "T"
    value {
      type: DT_FLOAT
    }
  }
}
node {
  name: "MultiscaleDiscriminator/instance_normalization_27/batchnorm/add_1"
  op: "Add"
  input: "MultiscaleDiscriminator/instance_normalization_27/batchnorm/mul_1"
  input: "MultiscaleDiscriminator/instance_normalization_27/batchnorm/sub"
  attr {
    key: "T"
    value {
      type: DT_FLOAT
    }
  }
}
node {
  name: "MultiscaleDiscriminator/instance_normalization_27/Reshape_3"
  op: "Reshape"
  input: "MultiscaleDiscriminator/instance_normalization_27/batchnorm/add_1"
  input: "MultiscaleDiscriminator/instance_normalization_27/Shape"
  attr {
    key: "T"
    value {
      type: DT_FLOAT
    }
  }
  attr {
    key: "Tshape"
    value {
      type: DT_INT32
    }
  }
}
node {
  name: "MultiscaleDiscriminator/leaky_re_lu_1/LeakyRelu"
  op: "LeakyRelu"
  input: "MultiscaleDiscriminator/instance_normalization_27/Reshape_3"
  attr {
    key: "T"
    value {
      type: DT_FLOAT
    }
  }
  attr {
    key: "alpha"
    value {
      f: 0.20000000298023224
    }
  }
}
node {
  name: "zeros_like"
  op: "ZerosLike"
  input: "MultiscaleDiscriminator/leaky_re_lu_5/LeakyRelu"
  attr {
    key: "T"
    value {
      type: DT_FLOAT
    }
  }
}
node {
  name: "mean_squared_error/SquaredDifference"
  op: "SquaredDifference"
  input: "zeros_like"
  input: "MultiscaleDiscriminator/leaky_re_lu_5/LeakyRelu"
  attr {
    key: "T"
    value {
      type: DT_FLOAT
    }
  }
}
node {
  name: "mean_squared_error/Mean/reduction_indices"
  op: "Const"
  attr {
    key: "dtype"
    value {
      type: DT_INT32
    }
  }
  attr {
    key: "value"
    value {
      tensor {
        dtype: DT_INT32
        tensor_shape {
        }
        int_val: -1
      }
    }
  }
}
node {
  name: "mean_squared_error/Mean"
  op: "Mean"
  input: "mean_squared_error/SquaredDifference"
  input: "mean_squared_error/Mean/reduction_indices"
  attr {
    key: "T"
    value {
      type: DT_FLOAT
    }
  }
  attr {
    key: "Tidx"
    value {
      type: DT_INT32
    }
  }
  attr {
    key: "keep_dims"
    value {
      b: false
    }
  }
}
node {
  name: "mean_squared_error/weighted_loss/Const"
  op: "Const"
  attr {
    key: "dtype"
    value {
      type: DT_FLOAT
    }
  }
  attr {
    key: "value"
    value {
      tensor {
        dtype: DT_FLOAT
        tensor_shape {
        }
        float_val: 1.0
      }
    }
  }
}
node {
  name: "mean_squared_error/weighted_loss/broadcast_weights/assert_broadcastable/weights/shape"
  op: "Const"
  attr {
    key: "dtype"
    value {
      type: DT_INT32
    }
  }
  attr {
    key: "value"
    value {
      tensor {
        dtype: DT_INT32
        tensor_shape {
          dim {
          }
        }
      }
    }
  }
}
node {
  name: "mean_squared_error/weighted_loss/broadcast_weights/assert_broadcastable/weights/rank"
  op: "Const"
  attr {
    key: "dtype"
    value {
      type: DT_INT32
    }
  }
  attr {
    key: "value"
    value {
      tensor {
        dtype: DT_INT32
        tensor_shape {
        }
        int_val: 0
      }
    }
  }
}
node {
  name: "mean_squared_error/weighted_loss/broadcast_weights/assert_broadcastable/values/shape"
  op: "Shape"
  input: "mean_squared_error/Mean"
  attr {
    key: "T"
    value {
      type: DT_FLOAT
    }
  }
  attr {
    key: "out_type"
    value {
      type: DT_INT32
    }
  }
}
node {
  name: "mean_squared_error/weighted_loss/broadcast_weights/assert_broadcastable/values/rank"
  op: "Const"
  attr {
    key: "dtype"
    value {
      type: DT_INT32
    }
  }
  attr {
    key: "value"
    value {
      tensor {
        dtype: DT_INT32
        tensor_shape {
        }
        int_val: 3
      }
    }
  }
}
node {
  name: "mean_squared_error/weighted_loss/broadcast_weights/assert_broadcastable/static_scalar_check_success"
  op: "NoOp"
}
node {
  name: "mean_squared_error/weighted_loss/broadcast_weights/ones_like/Shape"
  op: "Shape"
  input: "mean_squared_error/Mean"
  input: "^mean_squared_error/weighted_loss/broadcast_weights/assert_broadcastable/static_scalar_check_success"
  attr {
    key: "T"
    value {
      type: DT_FLOAT
    }
  }
  attr {
    key: "out_type"
    value {
      type: DT_INT32
    }
  }
}
node {
  name: "mean_squared_error/weighted_loss/broadcast_weights/ones_like/Const"
  op: "Const"
  input: "^mean_squared_error/weighted_loss/broadcast_weights/assert_broadcastable/static_scalar_check_success"
  attr {
    key: "dtype"
    value {
      type: DT_FLOAT
    }
  }
  attr {
    key: "value"
    value {
      tensor {
        dtype: DT_FLOAT
        tensor_shape {
        }
        float_val: 1.0
      }
    }
  }
}
node {
  name: "mean_squared_error/weighted_loss/broadcast_weights/ones_like"
  op: "Fill"
  input: "mean_squared_error/weighted_loss/broadcast_weights/ones_like/Shape"
  input: "mean_squared_error/weighted_loss/broadcast_weights/ones_like/Const"
  attr {
    key: "T"
    value {
      type: DT_FLOAT
    }
  }
  attr {
    key: "index_type"
    value {
      type: DT_INT32
    }
  }
}
node {
  name: "mean_squared_error/weighted_loss/broadcast_weights"
  op: "Mul"
  input: "mean_squared_error/weighted_loss/Const"
  input: "mean_squared_error/weighted_loss/broadcast_weights/ones_like"
  attr {
    key: "T"
    value {
      type: DT_FLOAT
    }
  }
}
node {
  name: "mean_squared_error/weighted_loss/Mul"
  op: "Mul"
  input: "mean_squared_error/Mean"
  input: "mean_squared_error/weighted_loss/broadcast_weights"
  attr {
    key: "T"
    value {
      type: DT_FLOAT
    }
  }
}
node {
  name: "mean_squared_error/weighted_loss/Const_1"
  op: "Const"
  attr {
    key: "dtype"
    value {
      type: DT_INT32
    }
  }
  attr {
    key: "value"
    value {
      tensor {
        dtype: DT_INT32
        tensor_shape {
          dim {
            size: 3
          }
        }
        tensor_content: "\000\000\000\000\001\000\000\000\002\000\000\000"
      }
    }
  }
}
node {
  name: "mean_squared_error/weighted_loss/Sum"
  op: "Sum"
  input: "mean_squared_error/weighted_loss/Mul"
  input: "mean_squared_error/weighted_loss/Const_1"
  attr {
    key: "T"
    value {
      type: DT_FLOAT
    }
  }
  attr {
    key: "Tidx"
    value {
      type: DT_INT32
    }
  }
  attr {
    key: "keep_dims"
    value {
      b: false
    }
  }
}
node {
  name: "mean_squared_error/weighted_loss/num_elements"
  op: "Size"
  input: "mean_squared_error/weighted_loss/Mul"
  attr {
    key: "T"
    value {
      type: DT_FLOAT
    }
  }
  attr {
    key: "out_type"
    value {
      type: DT_INT32
    }
  }
}
node {
  name: "mean_squared_error/weighted_loss/num_elements/Cast"
  op: "Cast"
  input: "mean_squared_error/weighted_loss/num_elements"
  attr {
    key: "DstT"
    value {
      type: DT_FLOAT
    }
  }
  attr {
    key: "SrcT"
    value {
      type: DT_INT32
    }
  }
  attr {
    key: "Truncate"
    value {
      b: false
    }
  }
}
node {
  name: "mean_squared_error/weighted_loss/mul_1/x"
  op: "Const"
  attr {
    key: "dtype"
    value {
      type: DT_FLOAT
    }
  }
  attr {
    key: "value"
    value {
      tensor {
        dtype: DT_FLOAT
        tensor_shape {
        }
        float_val: 1.0
      }
    }
  }
}
node {
  name: "mean_squared_error/weighted_loss/mul_1"
  op: "Mul"
  input: "mean_squared_error/weighted_loss/mul_1/x"
  input: "mean_squared_error/weighted_loss/num_elements/Cast"
  attr {
    key: "T"
    value {
      type: DT_FLOAT
    }
  }
}
node {
  name: "mean_squared_error/weighted_loss/Const_2"
  op: "Const"
  attr {
    key: "dtype"
    value {
      type: DT_INT32
    }
  }
  attr {
    key: "value"
    value {
      tensor {
        dtype: DT_INT32
        tensor_shape {
          dim {
          }
        }
      }
    }
  }
}
node {
  name: "mean_squared_error/weighted_loss/Sum_1"
  op: "Sum"
  input: "mean_squared_error/weighted_loss/Sum"
  input: "mean_squared_error/weighted_loss/Const_2"
  attr {
    key: "T"
    value {
      type: DT_FLOAT
    }
  }
  attr {
    key: "Tidx"
    value {
      type: DT_INT32
    }
  }
  attr {
    key: "keep_dims"
    value {
      b: false
    }
  }
}
node {
  name: "mean_squared_error/weighted_loss/value"
  op: "DivNoNan"
  input: "mean_squared_error/weighted_loss/Sum_1"
  input: "mean_squared_error/weighted_loss/mul_1"
  attr {
    key: "T"
    value {
      type: DT_FLOAT
    }
  }
}
node {
  name: "add/x"
  op: "Const"
  attr {
    key: "dtype"
    value {
      type: DT_FLOAT
    }
  }
  attr {
    key: "value"
    value {
      tensor {
        dtype: DT_FLOAT
        tensor_shape {
        }
        float_val: 0.0
      }
    }
  }
}
node {
  name: "add"
  op: "Add"
  input: "add/x"
  input: "mean_squared_error/weighted_loss/value"
  attr {
    key: "T"
    value {
      type: DT_FLOAT
    }
  }
}
node {
  name: "zeros_like_1"
  op: "ZerosLike"
  input: "MultiscaleDiscriminator/leaky_re_lu_1/LeakyRelu"
  attr {
    key: "T"
    value {
      type: DT_FLOAT
    }
  }
}
node {
  name: "mean_squared_error_1/SquaredDifference"
  op: "SquaredDifference"
  input: "zeros_like_1"
  input: "MultiscaleDiscriminator/leaky_re_lu_1/LeakyRelu"
  attr {
    key: "T"
    value {
      type: DT_FLOAT
    }
  }
}
node {
  name: "mean_squared_error_1/Mean/reduction_indices"
  op: "Const"
  attr {
    key: "dtype"
    value {
      type: DT_INT32
    }
  }
  attr {
    key: "value"
    value {
      tensor {
        dtype: DT_INT32
        tensor_shape {
        }
        int_val: -1
      }
    }
  }
}
node {
  name: "mean_squared_error_1/Mean"
  op: "Mean"
  input: "mean_squared_error_1/SquaredDifference"
  input: "mean_squared_error_1/Mean/reduction_indices"
  attr {
    key: "T"
    value {
      type: DT_FLOAT
    }
  }
  attr {
    key: "Tidx"
    value {
      type: DT_INT32
    }
  }
  attr {
    key: "keep_dims"
    value {
      b: false
    }
  }
}
node {
  name: "mean_squared_error_1/weighted_loss/Const"
  op: "Const"
  attr {
    key: "dtype"
    value {
      type: DT_FLOAT
    }
  }
  attr {
    key: "value"
    value {
      tensor {
        dtype: DT_FLOAT
        tensor_shape {
        }
        float_val: 1.0
      }
    }
  }
}
node {
  name: "mean_squared_error_1/weighted_loss/broadcast_weights/assert_broadcastable/weights/shape"
  op: "Const"
  attr {
    key: "dtype"
    value {
      type: DT_INT32
    }
  }
  attr {
    key: "value"
    value {
      tensor {
        dtype: DT_INT32
        tensor_shape {
          dim {
          }
        }
      }
    }
  }
}
node {
  name: "mean_squared_error_1/weighted_loss/broadcast_weights/assert_broadcastable/weights/rank"
  op: "Const"
  attr {
    key: "dtype"
    value {
      type: DT_INT32
    }
  }
  attr {
    key: "value"
    value {
      tensor {
        dtype: DT_INT32
        tensor_shape {
        }
        int_val: 0
      }
    }
  }
}
node {
  name: "mean_squared_error_1/weighted_loss/broadcast_weights/assert_broadcastable/values/shape"
  op: "Shape"
  input: "mean_squared_error_1/Mean"
  attr {
    key: "T"
    value {
      type: DT_FLOAT
    }
  }
  attr {
    key: "out_type"
    value {
      type: DT_INT32
    }
  }
}
node {
  name: "mean_squared_error_1/weighted_loss/broadcast_weights/assert_broadcastable/values/rank"
  op: "Const"
  attr {
    key: "dtype"
    value {
      type: DT_INT32
    }
  }
  attr {
    key: "value"
    value {
      tensor {
        dtype: DT_INT32
        tensor_shape {
        }
        int_val: 3
      }
    }
  }
}
node {
  name: "mean_squared_error_1/weighted_loss/broadcast_weights/assert_broadcastable/static_scalar_check_success"
  op: "NoOp"
}
node {
  name: "mean_squared_error_1/weighted_loss/broadcast_weights/ones_like/Shape"
  op: "Shape"
  input: "mean_squared_error_1/Mean"
  input: "^mean_squared_error_1/weighted_loss/broadcast_weights/assert_broadcastable/static_scalar_check_success"
  attr {
    key: "T"
    value {
      type: DT_FLOAT
    }
  }
  attr {
    key: "out_type"
    value {
      type: DT_INT32
    }
  }
}
node {
  name: "mean_squared_error_1/weighted_loss/broadcast_weights/ones_like/Const"
  op: "Const"
  input: "^mean_squared_error_1/weighted_loss/broadcast_weights/assert_broadcastable/static_scalar_check_success"
  attr {
    key: "dtype"
    value {
      type: DT_FLOAT
    }
  }
  attr {
    key: "value"
    value {
      tensor {
        dtype: DT_FLOAT
        tensor_shape {
        }
        float_val: 1.0
      }
    }
  }
}
node {
  name: "mean_squared_error_1/weighted_loss/broadcast_weights/ones_like"
  op: "Fill"
  input: "mean_squared_error_1/weighted_loss/broadcast_weights/ones_like/Shape"
  input: "mean_squared_error_1/weighted_loss/broadcast_weights/ones_like/Const"
  attr {
    key: "T"
    value {
      type: DT_FLOAT
    }
  }
  attr {
    key: "index_type"
    value {
      type: DT_INT32
    }
  }
}
node {
  name: "mean_squared_error_1/weighted_loss/broadcast_weights"
  op: "Mul"
  input: "mean_squared_error_1/weighted_loss/Const"
  input: "mean_squared_error_1/weighted_loss/broadcast_weights/ones_like"
  attr {
    key: "T"
    value {
      type: DT_FLOAT
    }
  }
}
node {
  name: "mean_squared_error_1/weighted_loss/Mul"
  op: "Mul"
  input: "mean_squared_error_1/Mean"
  input: "mean_squared_error_1/weighted_loss/broadcast_weights"
  attr {
    key: "T"
    value {
      type: DT_FLOAT
    }
  }
}
node {
  name: "mean_squared_error_1/weighted_loss/Const_1"
  op: "Const"
  attr {
    key: "dtype"
    value {
      type: DT_INT32
    }
  }
  attr {
    key: "value"
    value {
      tensor {
        dtype: DT_INT32
        tensor_shape {
          dim {
            size: 3
          }
        }
        tensor_content: "\000\000\000\000\001\000\000\000\002\000\000\000"
      }
    }
  }
}
node {
  name: "mean_squared_error_1/weighted_loss/Sum"
  op: "Sum"
  input: "mean_squared_error_1/weighted_loss/Mul"
  input: "mean_squared_error_1/weighted_loss/Const_1"
  attr {
    key: "T"
    value {
      type: DT_FLOAT
    }
  }
  attr {
    key: "Tidx"
    value {
      type: DT_INT32
    }
  }
  attr {
    key: "keep_dims"
    value {
      b: false
    }
  }
}
node {
  name: "mean_squared_error_1/weighted_loss/num_elements"
  op: "Size"
  input: "mean_squared_error_1/weighted_loss/Mul"
  attr {
    key: "T"
    value {
      type: DT_FLOAT
    }
  }
  attr {
    key: "out_type"
    value {
      type: DT_INT32
    }
  }
}
node {
  name: "mean_squared_error_1/weighted_loss/num_elements/Cast"
  op: "Cast"
  input: "mean_squared_error_1/weighted_loss/num_elements"
  attr {
    key: "DstT"
    value {
      type: DT_FLOAT
    }
  }
  attr {
    key: "SrcT"
    value {
      type: DT_INT32
    }
  }
  attr {
    key: "Truncate"
    value {
      b: false
    }
  }
}
node {
  name: "mean_squared_error_1/weighted_loss/mul_1/x"
  op: "Const"
  attr {
    key: "dtype"
    value {
      type: DT_FLOAT
    }
  }
  attr {
    key: "value"
    value {
      tensor {
        dtype: DT_FLOAT
        tensor_shape {
        }
        float_val: 1.0
      }
    }
  }
}
node {
  name: "mean_squared_error_1/weighted_loss/mul_1"
  op: "Mul"
  input: "mean_squared_error_1/weighted_loss/mul_1/x"
  input: "mean_squared_error_1/weighted_loss/num_elements/Cast"
  attr {
    key: "T"
    value {
      type: DT_FLOAT
    }
  }
}
node {
  name: "mean_squared_error_1/weighted_loss/Const_2"
  op: "Const"
  attr {
    key: "dtype"
    value {
      type: DT_INT32
    }
  }
  attr {
    key: "value"
    value {
      tensor {
        dtype: DT_INT32
        tensor_shape {
          dim {
          }
        }
      }
    }
  }
}
node {
  name: "mean_squared_error_1/weighted_loss/Sum_1"
  op: "Sum"
  input: "mean_squared_error_1/weighted_loss/Sum"
  input: "mean_squared_error_1/weighted_loss/Const_2"
  attr {
    key: "T"
    value {
      type: DT_FLOAT
    }
  }
  attr {
    key: "Tidx"
    value {
      type: DT_INT32
    }
  }
  attr {
    key: "keep_dims"
    value {
      b: false
    }
  }
}
node {
  name: "mean_squared_error_1/weighted_loss/value"
  op: "DivNoNan"
  input: "mean_squared_error_1/weighted_loss/Sum_1"
  input: "mean_squared_error_1/weighted_loss/mul_1"
  attr {
    key: "T"
    value {
      type: DT_FLOAT
    }
  }
}
node {
  name: "add_1"
  op: "Add"
  input: "add"
  input: "mean_squared_error_1/weighted_loss/value"
  attr {
    key: "T"
    value {
      type: DT_FLOAT
    }
  }
}
node {
  name: "MultiscaleDiscriminator_1/conv2d_29/Conv2D/ReadVariableOp"
  op: "ReadVariableOp"
  input: "MultiscaleDiscriminator/conv2d_29/Conv2D/ReadVariableOp/resource"
  input: "^MultiscaleDiscriminator/conv2d_29/Conv2D/ReadVariableOp"
  device: "/job:localhost/replica:0/task:0/device:GPU:0"
  attr {
    key: "dtype"
    value {
      type: DT_FLOAT
    }
  }
}
node {
  name: "MultiscaleDiscriminator_1/conv2d_29/Conv2D"
  op: "Conv2D"
  input: "concat"
  input: "MultiscaleDiscriminator_1/conv2d_29/Conv2D/ReadVariableOp"
  attr {
    key: "T"
    value {
      type: DT_FLOAT
    }
  }
  attr {
    key: "data_format"
    value {
      s: "NHWC"
    }
  }
  attr {
    key: "dilations"
    value {
      list {
        i: 1
        i: 1
        i: 1
        i: 1
      }
    }
  }
  attr {
    key: "explicit_paddings"
    value {
      list {
      }
    }
  }
  attr {
    key: "padding"
    value {
      s: "SAME"
    }
  }
  attr {
    key: "strides"
    value {
      list {
        i: 1
        i: 2
        i: 2
        i: 1
      }
    }
  }
  attr {
    key: "use_cudnn_on_gpu"
    value {
      b: true
    }
  }
}
node {
  name: "MultiscaleDiscriminator_1/conv2d_29/BiasAdd/ReadVariableOp"
  op: "ReadVariableOp"
  input: "MultiscaleDiscriminator/conv2d_29/BiasAdd/ReadVariableOp/resource"
  input: "^MultiscaleDiscriminator/conv2d_29/BiasAdd/ReadVariableOp"
  device: "/job:localhost/replica:0/task:0/device:GPU:0"
  attr {
    key: "dtype"
    value {
      type: DT_FLOAT
    }
  }
}
node {
  name: "MultiscaleDiscriminator_1/conv2d_29/BiasAdd"
  op: "BiasAdd"
  input: "MultiscaleDiscriminator_1/conv2d_29/Conv2D"
  input: "MultiscaleDiscriminator_1/conv2d_29/BiasAdd/ReadVariableOp"
  attr {
    key: "T"
    value {
      type: DT_FLOAT
    }
  }
  attr {
    key: "data_format"
    value {
      s: "NHWC"
    }
  }
}
node {
  name: "MultiscaleDiscriminator_1/leaky_re_lu_4/LeakyRelu"
  op: "LeakyRelu"
  input: "MultiscaleDiscriminator_1/conv2d_29/BiasAdd"
  attr {
    key: "T"
    value {
      type: DT_FLOAT
    }
  }
  attr {
    key: "alpha"
    value {
      f: 0.20000000298023224
    }
  }
}
node {
  name: "MultiscaleDiscriminator_1/conv2d_30/Conv2D/ReadVariableOp"
  op: "ReadVariableOp"
  input: "MultiscaleDiscriminator/conv2d_30/Conv2D/ReadVariableOp/resource"
  input: "^MultiscaleDiscriminator/conv2d_30/Conv2D/ReadVariableOp"
  device: "/job:localhost/replica:0/task:0/device:GPU:0"
  attr {
    key: "dtype"
    value {
      type: DT_FLOAT
    }
  }
}
node {
  name: "MultiscaleDiscriminator_1/conv2d_30/Conv2D"
  op: "Conv2D"
  input: "MultiscaleDiscriminator_1/leaky_re_lu_4/LeakyRelu"
  input: "MultiscaleDiscriminator_1/conv2d_30/Conv2D/ReadVariableOp"
  attr {
    key: "T"
    value {
      type: DT_FLOAT
    }
  }
  attr {
    key: "data_format"
    value {
      s: "NHWC"
    }
  }
  attr {
    key: "dilations"
    value {
      list {
        i: 1
        i: 1
        i: 1
        i: 1
      }
    }
  }
  attr {
    key: "explicit_paddings"
    value {
      list {
      }
    }
  }
  attr {
    key: "padding"
    value {
      s: "SAME"
    }
  }
  attr {
    key: "strides"
    value {
      list {
        i: 1
        i: 2
        i: 2
        i: 1
      }
    }
  }
  attr {
    key: "use_cudnn_on_gpu"
    value {
      b: true
    }
  }
}
node {
  name: "MultiscaleDiscriminator_1/conv2d_30/BiasAdd/ReadVariableOp"
  op: "ReadVariableOp"
  input: "MultiscaleDiscriminator/conv2d_30/BiasAdd/ReadVariableOp/resource"
  input: "^MultiscaleDiscriminator/conv2d_30/BiasAdd/ReadVariableOp"
  device: "/job:localhost/replica:0/task:0/device:GPU:0"
  attr {
    key: "dtype"
    value {
      type: DT_FLOAT
    }
  }
}
node {
  name: "MultiscaleDiscriminator_1/conv2d_30/BiasAdd"
  op: "BiasAdd"
  input: "MultiscaleDiscriminator_1/conv2d_30/Conv2D"
  input: "MultiscaleDiscriminator_1/conv2d_30/BiasAdd/ReadVariableOp"
  attr {
    key: "T"
    value {
      type: DT_FLOAT
    }
  }
  attr {
    key: "data_format"
    value {
      s: "NHWC"
    }
  }
}
node {
  name: "MultiscaleDiscriminator_1/instance_normalization_30/Shape"
  op: "Shape"
  input: "MultiscaleDiscriminator_1/conv2d_30/BiasAdd"
  attr {
    key: "T"
    value {
      type: DT_FLOAT
    }
  }
  attr {
    key: "out_type"
    value {
      type: DT_INT32
    }
  }
}
node {
  name: "MultiscaleDiscriminator_1/instance_normalization_30/strided_slice/stack"
  op: "Const"
  attr {
    key: "dtype"
    value {
      type: DT_INT32
    }
  }
  attr {
    key: "value"
    value {
      tensor {
        dtype: DT_INT32
        tensor_shape {
          dim {
            size: 1
          }
        }
        int_val: 0
      }
    }
  }
}
node {
  name: "MultiscaleDiscriminator_1/instance_normalization_30/strided_slice/stack_1"
  op: "Const"
  attr {
    key: "dtype"
    value {
      type: DT_INT32
    }
  }
  attr {
    key: "value"
    value {
      tensor {
        dtype: DT_INT32
        tensor_shape {
          dim {
            size: 1
          }
        }
        int_val: 1
      }
    }
  }
}
node {
  name: "MultiscaleDiscriminator_1/instance_normalization_30/strided_slice/stack_2"
  op: "Const"
  attr {
    key: "dtype"
    value {
      type: DT_INT32
    }
  }
  attr {
    key: "value"
    value {
      tensor {
        dtype: DT_INT32
        tensor_shape {
          dim {
            size: 1
          }
        }
        int_val: 1
      }
    }
  }
}
node {
  name: "MultiscaleDiscriminator_1/instance_normalization_30/strided_slice"
  op: "StridedSlice"
  input: "MultiscaleDiscriminator_1/instance_normalization_30/Shape"
  input: "MultiscaleDiscriminator_1/instance_normalization_30/strided_slice/stack"
  input: "MultiscaleDiscriminator_1/instance_normalization_30/strided_slice/stack_1"
  input: "MultiscaleDiscriminator_1/instance_normalization_30/strided_slice/stack_2"
  attr {
    key: "Index"
    value {
      type: DT_INT32
    }
  }
  attr {
    key: "T"
    value {
      type: DT_INT32
    }
  }
  attr {
    key: "begin_mask"
    value {
      i: 0
    }
  }
  attr {
    key: "ellipsis_mask"
    value {
      i: 0
    }
  }
  attr {
    key: "end_mask"
    value {
      i: 0
    }
  }
  attr {
    key: "new_axis_mask"
    value {
      i: 0
    }
  }
  attr {
    key: "shrink_axis_mask"
    value {
      i: 1
    }
  }
}
node {
  name: "MultiscaleDiscriminator_1/instance_normalization_30/strided_slice_1/stack"
  op: "Const"
  attr {
    key: "dtype"
    value {
      type: DT_INT32
    }
  }
  attr {
    key: "value"
    value {
      tensor {
        dtype: DT_INT32
        tensor_shape {
          dim {
            size: 1
          }
        }
        int_val: 1
      }
    }
  }
}
node {
  name: "MultiscaleDiscriminator_1/instance_normalization_30/strided_slice_1/stack_1"
  op: "Const"
  attr {
    key: "dtype"
    value {
      type: DT_INT32
    }
  }
  attr {
    key: "value"
    value {
      tensor {
        dtype: DT_INT32
        tensor_shape {
          dim {
            size: 1
          }
        }
        int_val: 2
      }
    }
  }
}
node {
  name: "MultiscaleDiscriminator_1/instance_normalization_30/strided_slice_1/stack_2"
  op: "Const"
  attr {
    key: "dtype"
    value {
      type: DT_INT32
    }
  }
  attr {
    key: "value"
    value {
      tensor {
        dtype: DT_INT32
        tensor_shape {
          dim {
            size: 1
          }
        }
        int_val: 1
      }
    }
  }
}
node {
  name: "MultiscaleDiscriminator_1/instance_normalization_30/strided_slice_1"
  op: "StridedSlice"
  input: "MultiscaleDiscriminator_1/instance_normalization_30/Shape"
  input: "MultiscaleDiscriminator_1/instance_normalization_30/strided_slice_1/stack"
  input: "MultiscaleDiscriminator_1/instance_normalization_30/strided_slice_1/stack_1"
  input: "MultiscaleDiscriminator_1/instance_normalization_30/strided_slice_1/stack_2"
  attr {
    key: "Index"
    value {
      type: DT_INT32
    }
  }
  attr {
    key: "T"
    value {
      type: DT_INT32
    }
  }
  attr {
    key: "begin_mask"
    value {
      i: 0
    }
  }
  attr {
    key: "ellipsis_mask"
    value {
      i: 0
    }
  }
  attr {
    key: "end_mask"
    value {
      i: 0
    }
  }
  attr {
    key: "new_axis_mask"
    value {
      i: 0
    }
  }
  attr {
    key: "shrink_axis_mask"
    value {
      i: 1
    }
  }
}
node {
  name: "MultiscaleDiscriminator_1/instance_normalization_30/strided_slice_2/stack"
  op: "Const"
  attr {
    key: "dtype"
    value {
      type: DT_INT32
    }
  }
  attr {
    key: "value"
    value {
      tensor {
        dtype: DT_INT32
        tensor_shape {
          dim {
            size: 1
          }
        }
        int_val: 2
      }
    }
  }
}
node {
  name: "MultiscaleDiscriminator_1/instance_normalization_30/strided_slice_2/stack_1"
  op: "Const"
  attr {
    key: "dtype"
    value {
      type: DT_INT32
    }
  }
  attr {
    key: "value"
    value {
      tensor {
        dtype: DT_INT32
        tensor_shape {
          dim {
            size: 1
          }
        }
        int_val: 3
      }
    }
  }
}
node {
  name: "MultiscaleDiscriminator_1/instance_normalization_30/strided_slice_2/stack_2"
  op: "Const"
  attr {
    key: "dtype"
    value {
      type: DT_INT32
    }
  }
  attr {
    key: "value"
    value {
      tensor {
        dtype: DT_INT32
        tensor_shape {
          dim {
            size: 1
          }
        }
        int_val: 1
      }
    }
  }
}
node {
  name: "MultiscaleDiscriminator_1/instance_normalization_30/strided_slice_2"
  op: "StridedSlice"
  input: "MultiscaleDiscriminator_1/instance_normalization_30/Shape"
  input: "MultiscaleDiscriminator_1/instance_normalization_30/strided_slice_2/stack"
  input: "MultiscaleDiscriminator_1/instance_normalization_30/strided_slice_2/stack_1"
  input: "MultiscaleDiscriminator_1/instance_normalization_30/strided_slice_2/stack_2"
  attr {
    key: "Index"
    value {
      type: DT_INT32
    }
  }
  attr {
    key: "T"
    value {
      type: DT_INT32
    }
  }
  attr {
    key: "begin_mask"
    value {
      i: 0
    }
  }
  attr {
    key: "ellipsis_mask"
    value {
      i: 0
    }
  }
  attr {
    key: "end_mask"
    value {
      i: 0
    }
  }
  attr {
    key: "new_axis_mask"
    value {
      i: 0
    }
  }
  attr {
    key: "shrink_axis_mask"
    value {
      i: 1
    }
  }
}
node {
  name: "MultiscaleDiscriminator_1/instance_normalization_30/strided_slice_3/stack"
  op: "Const"
  attr {
    key: "dtype"
    value {
      type: DT_INT32
    }
  }
  attr {
    key: "value"
    value {
      tensor {
        dtype: DT_INT32
        tensor_shape {
          dim {
            size: 1
          }
        }
        int_val: 3
      }
    }
  }
}
node {
  name: "MultiscaleDiscriminator_1/instance_normalization_30/strided_slice_3/stack_1"
  op: "Const"
  attr {
    key: "dtype"
    value {
      type: DT_INT32
    }
  }
  attr {
    key: "value"
    value {
      tensor {
        dtype: DT_INT32
        tensor_shape {
          dim {
            size: 1
          }
        }
        int_val: 4
      }
    }
  }
}
node {
  name: "MultiscaleDiscriminator_1/instance_normalization_30/strided_slice_3/stack_2"
  op: "Const"
  attr {
    key: "dtype"
    value {
      type: DT_INT32
    }
  }
  attr {
    key: "value"
    value {
      tensor {
        dtype: DT_INT32
        tensor_shape {
          dim {
            size: 1
          }
        }
        int_val: 1
      }
    }
  }
}
node {
  name: "MultiscaleDiscriminator_1/instance_normalization_30/strided_slice_3"
  op: "StridedSlice"
  input: "MultiscaleDiscriminator_1/instance_normalization_30/Shape"
  input: "MultiscaleDiscriminator_1/instance_normalization_30/strided_slice_3/stack"
  input: "MultiscaleDiscriminator_1/instance_normalization_30/strided_slice_3/stack_1"
  input: "MultiscaleDiscriminator_1/instance_normalization_30/strided_slice_3/stack_2"
  attr {
    key: "Index"
    value {
      type: DT_INT32
    }
  }
  attr {
    key: "T"
    value {
      type: DT_INT32
    }
  }
  attr {
    key: "begin_mask"
    value {
      i: 0
    }
  }
  attr {
    key: "ellipsis_mask"
    value {
      i: 0
    }
  }
  attr {
    key: "end_mask"
    value {
      i: 0
    }
  }
  attr {
    key: "new_axis_mask"
    value {
      i: 0
    }
  }
  attr {
    key: "shrink_axis_mask"
    value {
      i: 1
    }
  }
}
node {
  name: "MultiscaleDiscriminator_1/instance_normalization_30/stack/1"
  op: "Const"
  attr {
    key: "dtype"
    value {
      type: DT_INT32
    }
  }
  attr {
    key: "value"
    value {
      tensor {
        dtype: DT_INT32
        tensor_shape {
        }
        int_val: 128
      }
    }
  }
}
node {
  name: "MultiscaleDiscriminator_1/instance_normalization_30/stack/4"
  op: "Const"
  attr {
    key: "dtype"
    value {
      type: DT_INT32
    }
  }
  attr {
    key: "value"
    value {
      tensor {
        dtype: DT_INT32
        tensor_shape {
        }
        int_val: 1
      }
    }
  }
}
node {
  name: "MultiscaleDiscriminator_1/instance_normalization_30/stack"
  op: "Pack"
  input: "MultiscaleDiscriminator_1/instance_normalization_30/strided_slice"
  input: "MultiscaleDiscriminator_1/instance_normalization_30/stack/1"
  input: "MultiscaleDiscriminator_1/instance_normalization_30/strided_slice_1"
  input: "MultiscaleDiscriminator_1/instance_normalization_30/strided_slice_2"
  input: "MultiscaleDiscriminator_1/instance_normalization_30/stack/4"
  attr {
    key: "N"
    value {
      i: 5
    }
  }
  attr {
    key: "T"
    value {
      type: DT_INT32
    }
  }
  attr {
    key: "axis"
    value {
      i: 0
    }
  }
}
node {
  name: "MultiscaleDiscriminator_1/instance_normalization_30/Reshape"
  op: "Reshape"
  input: "MultiscaleDiscriminator_1/conv2d_30/BiasAdd"
  input: "MultiscaleDiscriminator_1/instance_normalization_30/stack"
  attr {
    key: "T"
    value {
      type: DT_FLOAT
    }
  }
  attr {
    key: "Tshape"
    value {
      type: DT_INT32
    }
  }
}
node {
  name: "MultiscaleDiscriminator_1/instance_normalization_30/moments/mean/reduction_indices"
  op: "Const"
  attr {
    key: "dtype"
    value {
      type: DT_INT32
    }
  }
  attr {
    key: "value"
    value {
      tensor {
        dtype: DT_INT32
        tensor_shape {
          dim {
            size: 3
          }
        }
        tensor_content: "\002\000\000\000\003\000\000\000\004\000\000\000"
      }
    }
  }
}
node {
  name: "MultiscaleDiscriminator_1/instance_normalization_30/moments/mean"
  op: "Mean"
  input: "MultiscaleDiscriminator_1/instance_normalization_30/Reshape"
  input: "MultiscaleDiscriminator_1/instance_normalization_30/moments/mean/reduction_indices"
  attr {
    key: "T"
    value {
      type: DT_FLOAT
    }
  }
  attr {
    key: "Tidx"
    value {
      type: DT_INT32
    }
  }
  attr {
    key: "keep_dims"
    value {
      b: true
    }
  }
}
node {
  name: "MultiscaleDiscriminator_1/instance_normalization_30/moments/StopGradient"
  op: "StopGradient"
  input: "MultiscaleDiscriminator_1/instance_normalization_30/moments/mean"
  attr {
    key: "T"
    value {
      type: DT_FLOAT
    }
  }
}
node {
  name: "MultiscaleDiscriminator_1/instance_normalization_30/moments/SquaredDifference"
  op: "SquaredDifference"
  input: "MultiscaleDiscriminator_1/instance_normalization_30/Reshape"
  input: "MultiscaleDiscriminator_1/instance_normalization_30/moments/StopGradient"
  attr {
    key: "T"
    value {
      type: DT_FLOAT
    }
  }
}
node {
  name: "MultiscaleDiscriminator_1/instance_normalization_30/moments/variance/reduction_indices"
  op: "Const"
  attr {
    key: "dtype"
    value {
      type: DT_INT32
    }
  }
  attr {
    key: "value"
    value {
      tensor {
        dtype: DT_INT32
        tensor_shape {
          dim {
            size: 3
          }
        }
        tensor_content: "\002\000\000\000\003\000\000\000\004\000\000\000"
      }
    }
  }
}
node {
  name: "MultiscaleDiscriminator_1/instance_normalization_30/moments/variance"
  op: "Mean"
  input: "MultiscaleDiscriminator_1/instance_normalization_30/moments/SquaredDifference"
  input: "MultiscaleDiscriminator_1/instance_normalization_30/moments/variance/reduction_indices"
  attr {
    key: "T"
    value {
      type: DT_FLOAT
    }
  }
  attr {
    key: "Tidx"
    value {
      type: DT_INT32
    }
  }
  attr {
    key: "keep_dims"
    value {
      b: true
    }
  }
}
node {
  name: "MultiscaleDiscriminator_1/instance_normalization_30/Reshape_1/ReadVariableOp"
  op: "ReadVariableOp"
  input: "MultiscaleDiscriminator/instance_normalization_30/Reshape_1/ReadVariableOp/resource"
  input: "^MultiscaleDiscriminator/instance_normalization_30/Reshape_1/ReadVariableOp"
  device: "/job:localhost/replica:0/task:0/device:GPU:0"
  attr {
    key: "dtype"
    value {
      type: DT_FLOAT
    }
  }
}
node {
  name: "MultiscaleDiscriminator_1/instance_normalization_30/Reshape_1/shape"
  op: "Const"
  attr {
    key: "dtype"
    value {
      type: DT_INT32
    }
  }
  attr {
    key: "value"
    value {
      tensor {
        dtype: DT_INT32
        tensor_shape {
          dim {
            size: 5
          }
        }
        tensor_content: "\001\000\000\000\200\000\000\000\001\000\000\000\001\000\000\000\001\000\000\000"
      }
    }
  }
}
node {
  name: "MultiscaleDiscriminator_1/instance_normalization_30/Reshape_1"
  op: "Reshape"
  input: "MultiscaleDiscriminator_1/instance_normalization_30/Reshape_1/ReadVariableOp"
  input: "MultiscaleDiscriminator_1/instance_normalization_30/Reshape_1/shape"
  attr {
    key: "T"
    value {
      type: DT_FLOAT
    }
  }
  attr {
    key: "Tshape"
    value {
      type: DT_INT32
    }
  }
}
node {
  name: "MultiscaleDiscriminator_1/instance_normalization_30/Reshape_2/ReadVariableOp"
  op: "ReadVariableOp"
  input: "MultiscaleDiscriminator/instance_normalization_30/Reshape_2/ReadVariableOp/resource"
  input: "^MultiscaleDiscriminator/instance_normalization_30/Reshape_2/ReadVariableOp"
  device: "/job:localhost/replica:0/task:0/device:GPU:0"
  attr {
    key: "dtype"
    value {
      type: DT_FLOAT
    }
  }
}
node {
  name: "MultiscaleDiscriminator_1/instance_normalization_30/Reshape_2/shape"
  op: "Const"
  attr {
    key: "dtype"
    value {
      type: DT_INT32
    }
  }
  attr {
    key: "value"
    value {
      tensor {
        dtype: DT_INT32
        tensor_shape {
          dim {
            size: 5
          }
        }
        tensor_content: "\001\000\000\000\200\000\000\000\001\000\000\000\001\000\000\000\001\000\000\000"
      }
    }
  }
}
node {
  name: "MultiscaleDiscriminator_1/instance_normalization_30/Reshape_2"
  op: "Reshape"
  input: "MultiscaleDiscriminator_1/instance_normalization_30/Reshape_2/ReadVariableOp"
  input: "MultiscaleDiscriminator_1/instance_normalization_30/Reshape_2/shape"
  attr {
    key: "T"
    value {
      type: DT_FLOAT
    }
  }
  attr {
    key: "Tshape"
    value {
      type: DT_INT32
    }
  }
}
node {
  name: "MultiscaleDiscriminator_1/instance_normalization_30/batchnorm/add/y"
  op: "Const"
  attr {
    key: "dtype"
    value {
      type: DT_FLOAT
    }
  }
  attr {
    key: "value"
    value {
      tensor {
        dtype: DT_FLOAT
        tensor_shape {
        }
        float_val: 9.999999747378752e-06
      }
    }
  }
}
node {
  name: "MultiscaleDiscriminator_1/instance_normalization_30/batchnorm/add"
  op: "Add"
  input: "MultiscaleDiscriminator_1/instance_normalization_30/moments/variance"
  input: "MultiscaleDiscriminator_1/instance_normalization_30/batchnorm/add/y"
  attr {
    key: "T"
    value {
      type: DT_FLOAT
    }
  }
}
node {
  name: "MultiscaleDiscriminator_1/instance_normalization_30/batchnorm/Rsqrt"
  op: "Rsqrt"
  input: "MultiscaleDiscriminator_1/instance_normalization_30/batchnorm/add"
  attr {
    key: "T"
    value {
      type: DT_FLOAT
    }
  }
}
node {
  name: "MultiscaleDiscriminator_1/instance_normalization_30/batchnorm/mul"
  op: "Mul"
  input: "MultiscaleDiscriminator_1/instance_normalization_30/batchnorm/Rsqrt"
  input: "MultiscaleDiscriminator_1/instance_normalization_30/Reshape_1"
  attr {
    key: "T"
    value {
      type: DT_FLOAT
    }
  }
}
node {
  name: "MultiscaleDiscriminator_1/instance_normalization_30/batchnorm/mul_1"
  op: "Mul"
  input: "MultiscaleDiscriminator_1/instance_normalization_30/Reshape"
  input: "MultiscaleDiscriminator_1/instance_normalization_30/batchnorm/mul"
  attr {
    key: "T"
    value {
      type: DT_FLOAT
    }
  }
}
node {
  name: "MultiscaleDiscriminator_1/instance_normalization_30/batchnorm/mul_2"
  op: "Mul"
  input: "MultiscaleDiscriminator_1/instance_normalization_30/moments/mean"
  input: "MultiscaleDiscriminator_1/instance_normalization_30/batchnorm/mul"
  attr {
    key: "T"
    value {
      type: DT_FLOAT
    }
  }
}
node {
  name: "MultiscaleDiscriminator_1/instance_normalization_30/batchnorm/sub"
  op: "Sub"
  input: "MultiscaleDiscriminator_1/instance_normalization_30/Reshape_2"
  input: "MultiscaleDiscriminator_1/instance_normalization_30/batchnorm/mul_2"
  attr {
    key: "T"
    value {
      type: DT_FLOAT
    }
  }
}
node {
  name: "MultiscaleDiscriminator_1/instance_normalization_30/batchnorm/add_1"
  op: "Add"
  input: "MultiscaleDiscriminator_1/instance_normalization_30/batchnorm/mul_1"
  input: "MultiscaleDiscriminator_1/instance_normalization_30/batchnorm/sub"
  attr {
    key: "T"
    value {
      type: DT_FLOAT
    }
  }
}
node {
  name: "MultiscaleDiscriminator_1/instance_normalization_30/Reshape_3"
  op: "Reshape"
  input: "MultiscaleDiscriminator_1/instance_normalization_30/batchnorm/add_1"
  input: "MultiscaleDiscriminator_1/instance_normalization_30/Shape"
  attr {
    key: "T"
    value {
      type: DT_FLOAT
    }
  }
  attr {
    key: "Tshape"
    value {
      type: DT_INT32
    }
  }
}
node {
  name: "MultiscaleDiscriminator_1/leaky_re_lu_5/LeakyRelu"
  op: "LeakyRelu"
  input: "MultiscaleDiscriminator_1/instance_normalization_30/Reshape_3"
  attr {
    key: "T"
    value {
      type: DT_FLOAT
    }
  }
  attr {
    key: "alpha"
    value {
      f: 0.20000000298023224
    }
  }
}
node {
  name: "MultiscaleDiscriminator_1/average_pooling2d/AvgPool"
  op: "AvgPool"
  input: "concat"
  attr {
    key: "T"
    value {
      type: DT_FLOAT
    }
  }
  attr {
    key: "data_format"
    value {
      s: "NHWC"
    }
  }
  attr {
    key: "ksize"
    value {
      list {
        i: 1
        i: 3
        i: 3
        i: 1
      }
    }
  }
  attr {
    key: "padding"
    value {
      s: "SAME"
    }
  }
  attr {
    key: "strides"
    value {
      list {
        i: 1
        i: 2
        i: 2
        i: 1
      }
    }
  }
}
node {
  name: "MultiscaleDiscriminator_1/conv2d_24/Conv2D/ReadVariableOp"
  op: "ReadVariableOp"
  input: "MultiscaleDiscriminator/conv2d_24/Conv2D/ReadVariableOp/resource"
  input: "^MultiscaleDiscriminator/conv2d_24/Conv2D/ReadVariableOp"
  device: "/job:localhost/replica:0/task:0/device:GPU:0"
  attr {
    key: "dtype"
    value {
      type: DT_FLOAT
    }
  }
}
node {
  name: "MultiscaleDiscriminator_1/conv2d_24/Conv2D"
  op: "Conv2D"
  input: "MultiscaleDiscriminator_1/average_pooling2d/AvgPool"
  input: "MultiscaleDiscriminator_1/conv2d_24/Conv2D/ReadVariableOp"
  attr {
    key: "T"
    value {
      type: DT_FLOAT
    }
  }
  attr {
    key: "data_format"
    value {
      s: "NHWC"
    }
  }
  attr {
    key: "dilations"
    value {
      list {
        i: 1
        i: 1
        i: 1
        i: 1
      }
    }
  }
  attr {
    key: "explicit_paddings"
    value {
      list {
      }
    }
  }
  attr {
    key: "padding"
    value {
      s: "SAME"
    }
  }
  attr {
    key: "strides"
    value {
      list {
        i: 1
        i: 2
        i: 2
        i: 1
      }
    }
  }
  attr {
    key: "use_cudnn_on_gpu"
    value {
      b: true
    }
  }
}
node {
  name: "MultiscaleDiscriminator_1/conv2d_24/BiasAdd/ReadVariableOp"
  op: "ReadVariableOp"
  input: "MultiscaleDiscriminator/conv2d_24/BiasAdd/ReadVariableOp/resource"
  input: "^MultiscaleDiscriminator/conv2d_24/BiasAdd/ReadVariableOp"
  device: "/job:localhost/replica:0/task:0/device:GPU:0"
  attr {
    key: "dtype"
    value {
      type: DT_FLOAT
    }
  }
}
node {
  name: "MultiscaleDiscriminator_1/conv2d_24/BiasAdd"
  op: "BiasAdd"
  input: "MultiscaleDiscriminator_1/conv2d_24/Conv2D"
  input: "MultiscaleDiscriminator_1/conv2d_24/BiasAdd/ReadVariableOp"
  attr {
    key: "T"
    value {
      type: DT_FLOAT
    }
  }
  attr {
    key: "data_format"
    value {
      s: "NHWC"
    }
  }
}
node {
  name: "MultiscaleDiscriminator_1/leaky_re_lu/LeakyRelu"
  op: "LeakyRelu"
  input: "MultiscaleDiscriminator_1/conv2d_24/BiasAdd"
  attr {
    key: "T"
    value {
      type: DT_FLOAT
    }
  }
  attr {
    key: "alpha"
    value {
      f: 0.20000000298023224
    }
  }
}
node {
  name: "MultiscaleDiscriminator_1/conv2d_25/Conv2D/ReadVariableOp"
  op: "ReadVariableOp"
  input: "MultiscaleDiscriminator/conv2d_25/Conv2D/ReadVariableOp/resource"
  input: "^MultiscaleDiscriminator/conv2d_25/Conv2D/ReadVariableOp"
  device: "/job:localhost/replica:0/task:0/device:GPU:0"
  attr {
    key: "dtype"
    value {
      type: DT_FLOAT
    }
  }
}
node {
  name: "MultiscaleDiscriminator_1/conv2d_25/Conv2D"
  op: "Conv2D"
  input: "MultiscaleDiscriminator_1/leaky_re_lu/LeakyRelu"
  input: "MultiscaleDiscriminator_1/conv2d_25/Conv2D/ReadVariableOp"
  attr {
    key: "T"
    value {
      type: DT_FLOAT
    }
  }
  attr {
    key: "data_format"
    value {
      s: "NHWC"
    }
  }
  attr {
    key: "dilations"
    value {
      list {
        i: 1
        i: 1
        i: 1
        i: 1
      }
    }
  }
  attr {
    key: "explicit_paddings"
    value {
      list {
      }
    }
  }
  attr {
    key: "padding"
    value {
      s: "SAME"
    }
  }
  attr {
    key: "strides"
    value {
      list {
        i: 1
        i: 2
        i: 2
        i: 1
      }
    }
  }
  attr {
    key: "use_cudnn_on_gpu"
    value {
      b: true
    }
  }
}
node {
  name: "MultiscaleDiscriminator_1/conv2d_25/BiasAdd/ReadVariableOp"
  op: "ReadVariableOp"
  input: "MultiscaleDiscriminator/conv2d_25/BiasAdd/ReadVariableOp/resource"
  input: "^MultiscaleDiscriminator/conv2d_25/BiasAdd/ReadVariableOp"
  device: "/job:localhost/replica:0/task:0/device:GPU:0"
  attr {
    key: "dtype"
    value {
      type: DT_FLOAT
    }
  }
}
node {
  name: "MultiscaleDiscriminator_1/conv2d_25/BiasAdd"
  op: "BiasAdd"
  input: "MultiscaleDiscriminator_1/conv2d_25/Conv2D"
  input: "MultiscaleDiscriminator_1/conv2d_25/BiasAdd/ReadVariableOp"
  attr {
    key: "T"
    value {
      type: DT_FLOAT
    }
  }
  attr {
    key: "data_format"
    value {
      s: "NHWC"
    }
  }
}
node {
  name: "MultiscaleDiscriminator_1/instance_normalization_27/Shape"
  op: "Shape"
  input: "MultiscaleDiscriminator_1/conv2d_25/BiasAdd"
  attr {
    key: "T"
    value {
      type: DT_FLOAT
    }
  }
  attr {
    key: "out_type"
    value {
      type: DT_INT32
    }
  }
}
node {
  name: "MultiscaleDiscriminator_1/instance_normalization_27/strided_slice/stack"
  op: "Const"
  attr {
    key: "dtype"
    value {
      type: DT_INT32
    }
  }
  attr {
    key: "value"
    value {
      tensor {
        dtype: DT_INT32
        tensor_shape {
          dim {
            size: 1
          }
        }
        int_val: 0
      }
    }
  }
}
node {
  name: "MultiscaleDiscriminator_1/instance_normalization_27/strided_slice/stack_1"
  op: "Const"
  attr {
    key: "dtype"
    value {
      type: DT_INT32
    }
  }
  attr {
    key: "value"
    value {
      tensor {
        dtype: DT_INT32
        tensor_shape {
          dim {
            size: 1
          }
        }
        int_val: 1
      }
    }
  }
}
node {
  name: "MultiscaleDiscriminator_1/instance_normalization_27/strided_slice/stack_2"
  op: "Const"
  attr {
    key: "dtype"
    value {
      type: DT_INT32
    }
  }
  attr {
    key: "value"
    value {
      tensor {
        dtype: DT_INT32
        tensor_shape {
          dim {
            size: 1
          }
        }
        int_val: 1
      }
    }
  }
}
node {
  name: "MultiscaleDiscriminator_1/instance_normalization_27/strided_slice"
  op: "StridedSlice"
  input: "MultiscaleDiscriminator_1/instance_normalization_27/Shape"
  input: "MultiscaleDiscriminator_1/instance_normalization_27/strided_slice/stack"
  input: "MultiscaleDiscriminator_1/instance_normalization_27/strided_slice/stack_1"
  input: "MultiscaleDiscriminator_1/instance_normalization_27/strided_slice/stack_2"
  attr {
    key: "Index"
    value {
      type: DT_INT32
    }
  }
  attr {
    key: "T"
    value {
      type: DT_INT32
    }
  }
  attr {
    key: "begin_mask"
    value {
      i: 0
    }
  }
  attr {
    key: "ellipsis_mask"
    value {
      i: 0
    }
  }
  attr {
    key: "end_mask"
    value {
      i: 0
    }
  }
  attr {
    key: "new_axis_mask"
    value {
      i: 0
    }
  }
  attr {
    key: "shrink_axis_mask"
    value {
      i: 1
    }
  }
}
node {
  name: "MultiscaleDiscriminator_1/instance_normalization_27/strided_slice_1/stack"
  op: "Const"
  attr {
    key: "dtype"
    value {
      type: DT_INT32
    }
  }
  attr {
    key: "value"
    value {
      tensor {
        dtype: DT_INT32
        tensor_shape {
          dim {
            size: 1
          }
        }
        int_val: 1
      }
    }
  }
}
node {
  name: "MultiscaleDiscriminator_1/instance_normalization_27/strided_slice_1/stack_1"
  op: "Const"
  attr {
    key: "dtype"
    value {
      type: DT_INT32
    }
  }
  attr {
    key: "value"
    value {
      tensor {
        dtype: DT_INT32
        tensor_shape {
          dim {
            size: 1
          }
        }
        int_val: 2
      }
    }
  }
}
node {
  name: "MultiscaleDiscriminator_1/instance_normalization_27/strided_slice_1/stack_2"
  op: "Const"
  attr {
    key: "dtype"
    value {
      type: DT_INT32
    }
  }
  attr {
    key: "value"
    value {
      tensor {
        dtype: DT_INT32
        tensor_shape {
          dim {
            size: 1
          }
        }
        int_val: 1
      }
    }
  }
}
node {
  name: "MultiscaleDiscriminator_1/instance_normalization_27/strided_slice_1"
  op: "StridedSlice"
  input: "MultiscaleDiscriminator_1/instance_normalization_27/Shape"
  input: "MultiscaleDiscriminator_1/instance_normalization_27/strided_slice_1/stack"
  input: "MultiscaleDiscriminator_1/instance_normalization_27/strided_slice_1/stack_1"
  input: "MultiscaleDiscriminator_1/instance_normalization_27/strided_slice_1/stack_2"
  attr {
    key: "Index"
    value {
      type: DT_INT32
    }
  }
  attr {
    key: "T"
    value {
      type: DT_INT32
    }
  }
  attr {
    key: "begin_mask"
    value {
      i: 0
    }
  }
  attr {
    key: "ellipsis_mask"
    value {
      i: 0
    }
  }
  attr {
    key: "end_mask"
    value {
      i: 0
    }
  }
  attr {
    key: "new_axis_mask"
    value {
      i: 0
    }
  }
  attr {
    key: "shrink_axis_mask"
    value {
      i: 1
    }
  }
}
node {
  name: "MultiscaleDiscriminator_1/instance_normalization_27/strided_slice_2/stack"
  op: "Const"
  attr {
    key: "dtype"
    value {
      type: DT_INT32
    }
  }
  attr {
    key: "value"
    value {
      tensor {
        dtype: DT_INT32
        tensor_shape {
          dim {
            size: 1
          }
        }
        int_val: 2
      }
    }
  }
}
node {
  name: "MultiscaleDiscriminator_1/instance_normalization_27/strided_slice_2/stack_1"
  op: "Const"
  attr {
    key: "dtype"
    value {
      type: DT_INT32
    }
  }
  attr {
    key: "value"
    value {
      tensor {
        dtype: DT_INT32
        tensor_shape {
          dim {
            size: 1
          }
        }
        int_val: 3
      }
    }
  }
}
node {
  name: "MultiscaleDiscriminator_1/instance_normalization_27/strided_slice_2/stack_2"
  op: "Const"
  attr {
    key: "dtype"
    value {
      type: DT_INT32
    }
  }
  attr {
    key: "value"
    value {
      tensor {
        dtype: DT_INT32
        tensor_shape {
          dim {
            size: 1
          }
        }
        int_val: 1
      }
    }
  }
}
node {
  name: "MultiscaleDiscriminator_1/instance_normalization_27/strided_slice_2"
  op: "StridedSlice"
  input: "MultiscaleDiscriminator_1/instance_normalization_27/Shape"
  input: "MultiscaleDiscriminator_1/instance_normalization_27/strided_slice_2/stack"
  input: "MultiscaleDiscriminator_1/instance_normalization_27/strided_slice_2/stack_1"
  input: "MultiscaleDiscriminator_1/instance_normalization_27/strided_slice_2/stack_2"
  attr {
    key: "Index"
    value {
      type: DT_INT32
    }
  }
  attr {
    key: "T"
    value {
      type: DT_INT32
    }
  }
  attr {
    key: "begin_mask"
    value {
      i: 0
    }
  }
  attr {
    key: "ellipsis_mask"
    value {
      i: 0
    }
  }
  attr {
    key: "end_mask"
    value {
      i: 0
    }
  }
  attr {
    key: "new_axis_mask"
    value {
      i: 0
    }
  }
  attr {
    key: "shrink_axis_mask"
    value {
      i: 1
    }
  }
}
node {
  name: "MultiscaleDiscriminator_1/instance_normalization_27/strided_slice_3/stack"
  op: "Const"
  attr {
    key: "dtype"
    value {
      type: DT_INT32
    }
  }
  attr {
    key: "value"
    value {
      tensor {
        dtype: DT_INT32
        tensor_shape {
          dim {
            size: 1
          }
        }
        int_val: 3
      }
    }
  }
}
node {
  name: "MultiscaleDiscriminator_1/instance_normalization_27/strided_slice_3/stack_1"
  op: "Const"
  attr {
    key: "dtype"
    value {
      type: DT_INT32
    }
  }
  attr {
    key: "value"
    value {
      tensor {
        dtype: DT_INT32
        tensor_shape {
          dim {
            size: 1
          }
        }
        int_val: 4
      }
    }
  }
}
node {
  name: "MultiscaleDiscriminator_1/instance_normalization_27/strided_slice_3/stack_2"
  op: "Const"
  attr {
    key: "dtype"
    value {
      type: DT_INT32
    }
  }
  attr {
    key: "value"
    value {
      tensor {
        dtype: DT_INT32
        tensor_shape {
          dim {
            size: 1
          }
        }
        int_val: 1
      }
    }
  }
}
node {
  name: "MultiscaleDiscriminator_1/instance_normalization_27/strided_slice_3"
  op: "StridedSlice"
  input: "MultiscaleDiscriminator_1/instance_normalization_27/Shape"
  input: "MultiscaleDiscriminator_1/instance_normalization_27/strided_slice_3/stack"
  input: "MultiscaleDiscriminator_1/instance_normalization_27/strided_slice_3/stack_1"
  input: "MultiscaleDiscriminator_1/instance_normalization_27/strided_slice_3/stack_2"
  attr {
    key: "Index"
    value {
      type: DT_INT32
    }
  }
  attr {
    key: "T"
    value {
      type: DT_INT32
    }
  }
  attr {
    key: "begin_mask"
    value {
      i: 0
    }
  }
  attr {
    key: "ellipsis_mask"
    value {
      i: 0
    }
  }
  attr {
    key: "end_mask"
    value {
      i: 0
    }
  }
  attr {
    key: "new_axis_mask"
    value {
      i: 0
    }
  }
  attr {
    key: "shrink_axis_mask"
    value {
      i: 1
    }
  }
}
node {
  name: "MultiscaleDiscriminator_1/instance_normalization_27/stack/1"
  op: "Const"
  attr {
    key: "dtype"
    value {
      type: DT_INT32
    }
  }
  attr {
    key: "value"
    value {
      tensor {
        dtype: DT_INT32
        tensor_shape {
        }
        int_val: 128
      }
    }
  }
}
node {
  name: "MultiscaleDiscriminator_1/instance_normalization_27/stack/4"
  op: "Const"
  attr {
    key: "dtype"
    value {
      type: DT_INT32
    }
  }
  attr {
    key: "value"
    value {
      tensor {
        dtype: DT_INT32
        tensor_shape {
        }
        int_val: 1
      }
    }
  }
}
node {
  name: "MultiscaleDiscriminator_1/instance_normalization_27/stack"
  op: "Pack"
  input: "MultiscaleDiscriminator_1/instance_normalization_27/strided_slice"
  input: "MultiscaleDiscriminator_1/instance_normalization_27/stack/1"
  input: "MultiscaleDiscriminator_1/instance_normalization_27/strided_slice_1"
  input: "MultiscaleDiscriminator_1/instance_normalization_27/strided_slice_2"
  input: "MultiscaleDiscriminator_1/instance_normalization_27/stack/4"
  attr {
    key: "N"
    value {
      i: 5
    }
  }
  attr {
    key: "T"
    value {
      type: DT_INT32
    }
  }
  attr {
    key: "axis"
    value {
      i: 0
    }
  }
}
node {
  name: "MultiscaleDiscriminator_1/instance_normalization_27/Reshape"
  op: "Reshape"
  input: "MultiscaleDiscriminator_1/conv2d_25/BiasAdd"
  input: "MultiscaleDiscriminator_1/instance_normalization_27/stack"
  attr {
    key: "T"
    value {
      type: DT_FLOAT
    }
  }
  attr {
    key: "Tshape"
    value {
      type: DT_INT32
    }
  }
}
node {
  name: "MultiscaleDiscriminator_1/instance_normalization_27/moments/mean/reduction_indices"
  op: "Const"
  attr {
    key: "dtype"
    value {
      type: DT_INT32
    }
  }
  attr {
    key: "value"
    value {
      tensor {
        dtype: DT_INT32
        tensor_shape {
          dim {
            size: 3
          }
        }
        tensor_content: "\002\000\000\000\003\000\000\000\004\000\000\000"
      }
    }
  }
}
node {
  name: "MultiscaleDiscriminator_1/instance_normalization_27/moments/mean"
  op: "Mean"
  input: "MultiscaleDiscriminator_1/instance_normalization_27/Reshape"
  input: "MultiscaleDiscriminator_1/instance_normalization_27/moments/mean/reduction_indices"
  attr {
    key: "T"
    value {
      type: DT_FLOAT
    }
  }
  attr {
    key: "Tidx"
    value {
      type: DT_INT32
    }
  }
  attr {
    key: "keep_dims"
    value {
      b: true
    }
  }
}
node {
  name: "MultiscaleDiscriminator_1/instance_normalization_27/moments/StopGradient"
  op: "StopGradient"
  input: "MultiscaleDiscriminator_1/instance_normalization_27/moments/mean"
  attr {
    key: "T"
    value {
      type: DT_FLOAT
    }
  }
}
node {
  name: "MultiscaleDiscriminator_1/instance_normalization_27/moments/SquaredDifference"
  op: "SquaredDifference"
  input: "MultiscaleDiscriminator_1/instance_normalization_27/Reshape"
  input: "MultiscaleDiscriminator_1/instance_normalization_27/moments/StopGradient"
  attr {
    key: "T"
    value {
      type: DT_FLOAT
    }
  }
}
node {
  name: "MultiscaleDiscriminator_1/instance_normalization_27/moments/variance/reduction_indices"
  op: "Const"
  attr {
    key: "dtype"
    value {
      type: DT_INT32
    }
  }
  attr {
    key: "value"
    value {
      tensor {
        dtype: DT_INT32
        tensor_shape {
          dim {
            size: 3
          }
        }
        tensor_content: "\002\000\000\000\003\000\000\000\004\000\000\000"
      }
    }
  }
}
node {
  name: "MultiscaleDiscriminator_1/instance_normalization_27/moments/variance"
  op: "Mean"
  input: "MultiscaleDiscriminator_1/instance_normalization_27/moments/SquaredDifference"
  input: "MultiscaleDiscriminator_1/instance_normalization_27/moments/variance/reduction_indices"
  attr {
    key: "T"
    value {
      type: DT_FLOAT
    }
  }
  attr {
    key: "Tidx"
    value {
      type: DT_INT32
    }
  }
  attr {
    key: "keep_dims"
    value {
      b: true
    }
  }
}
node {
  name: "MultiscaleDiscriminator_1/instance_normalization_27/Reshape_1/ReadVariableOp"
  op: "ReadVariableOp"
  input: "MultiscaleDiscriminator/instance_normalization_27/Reshape_1/ReadVariableOp/resource"
  input: "^MultiscaleDiscriminator/instance_normalization_27/Reshape_1/ReadVariableOp"
  device: "/job:localhost/replica:0/task:0/device:GPU:0"
  attr {
    key: "dtype"
    value {
      type: DT_FLOAT
    }
  }
}
node {
  name: "MultiscaleDiscriminator_1/instance_normalization_27/Reshape_1/shape"
  op: "Const"
  attr {
    key: "dtype"
    value {
      type: DT_INT32
    }
  }
  attr {
    key: "value"
    value {
      tensor {
        dtype: DT_INT32
        tensor_shape {
          dim {
            size: 5
          }
        }
        tensor_content: "\001\000\000\000\200\000\000\000\001\000\000\000\001\000\000\000\001\000\000\000"
      }
    }
  }
}
node {
  name: "MultiscaleDiscriminator_1/instance_normalization_27/Reshape_1"
  op: "Reshape"
  input: "MultiscaleDiscriminator_1/instance_normalization_27/Reshape_1/ReadVariableOp"
  input: "MultiscaleDiscriminator_1/instance_normalization_27/Reshape_1/shape"
  attr {
    key: "T"
    value {
      type: DT_FLOAT
    }
  }
  attr {
    key: "Tshape"
    value {
      type: DT_INT32
    }
  }
}
node {
  name: "MultiscaleDiscriminator_1/instance_normalization_27/Reshape_2/ReadVariableOp"
  op: "ReadVariableOp"
  input: "MultiscaleDiscriminator/instance_normalization_27/Reshape_2/ReadVariableOp/resource"
  input: "^MultiscaleDiscriminator/instance_normalization_27/Reshape_2/ReadVariableOp"
  device: "/job:localhost/replica:0/task:0/device:GPU:0"
  attr {
    key: "dtype"
    value {
      type: DT_FLOAT
    }
  }
}
node {
  name: "MultiscaleDiscriminator_1/instance_normalization_27/Reshape_2/shape"
  op: "Const"
  attr {
    key: "dtype"
    value {
      type: DT_INT32
    }
  }
  attr {
    key: "value"
    value {
      tensor {
        dtype: DT_INT32
        tensor_shape {
          dim {
            size: 5
          }
        }
        tensor_content: "\001\000\000\000\200\000\000\000\001\000\000\000\001\000\000\000\001\000\000\000"
      }
    }
  }
}
node {
  name: "MultiscaleDiscriminator_1/instance_normalization_27/Reshape_2"
  op: "Reshape"
  input: "MultiscaleDiscriminator_1/instance_normalization_27/Reshape_2/ReadVariableOp"
  input: "MultiscaleDiscriminator_1/instance_normalization_27/Reshape_2/shape"
  attr {
    key: "T"
    value {
      type: DT_FLOAT
    }
  }
  attr {
    key: "Tshape"
    value {
      type: DT_INT32
    }
  }
}
node {
  name: "MultiscaleDiscriminator_1/instance_normalization_27/batchnorm/add/y"
  op: "Const"
  attr {
    key: "dtype"
    value {
      type: DT_FLOAT
    }
  }
  attr {
    key: "value"
    value {
      tensor {
        dtype: DT_FLOAT
        tensor_shape {
        }
        float_val: 9.999999747378752e-06
      }
    }
  }
}
node {
  name: "MultiscaleDiscriminator_1/instance_normalization_27/batchnorm/add"
  op: "Add"
  input: "MultiscaleDiscriminator_1/instance_normalization_27/moments/variance"
  input: "MultiscaleDiscriminator_1/instance_normalization_27/batchnorm/add/y"
  attr {
    key: "T"
    value {
      type: DT_FLOAT
    }
  }
}
node {
  name: "MultiscaleDiscriminator_1/instance_normalization_27/batchnorm/Rsqrt"
  op: "Rsqrt"
  input: "MultiscaleDiscriminator_1/instance_normalization_27/batchnorm/add"
  attr {
    key: "T"
    value {
      type: DT_FLOAT
    }
  }
}
node {
  name: "MultiscaleDiscriminator_1/instance_normalization_27/batchnorm/mul"
  op: "Mul"
  input: "MultiscaleDiscriminator_1/instance_normalization_27/batchnorm/Rsqrt"
  input: "MultiscaleDiscriminator_1/instance_normalization_27/Reshape_1"
  attr {
    key: "T"
    value {
      type: DT_FLOAT
    }
  }
}
node {
  name: "MultiscaleDiscriminator_1/instance_normalization_27/batchnorm/mul_1"
  op: "Mul"
  input: "MultiscaleDiscriminator_1/instance_normalization_27/Reshape"
  input: "MultiscaleDiscriminator_1/instance_normalization_27/batchnorm/mul"
  attr {
    key: "T"
    value {
      type: DT_FLOAT
    }
  }
}
node {
  name: "MultiscaleDiscriminator_1/instance_normalization_27/batchnorm/mul_2"
  op: "Mul"
  input: "MultiscaleDiscriminator_1/instance_normalization_27/moments/mean"
  input: "MultiscaleDiscriminator_1/instance_normalization_27/batchnorm/mul"
  attr {
    key: "T"
    value {
      type: DT_FLOAT
    }
  }
}
node {
  name: "MultiscaleDiscriminator_1/instance_normalization_27/batchnorm/sub"
  op: "Sub"
  input: "MultiscaleDiscriminator_1/instance_normalization_27/Reshape_2"
  input: "MultiscaleDiscriminator_1/instance_normalization_27/batchnorm/mul_2"
  attr {
    key: "T"
    value {
      type: DT_FLOAT
    }
  }
}
node {
  name: "MultiscaleDiscriminator_1/instance_normalization_27/batchnorm/add_1"
  op: "Add"
  input: "MultiscaleDiscriminator_1/instance_normalization_27/batchnorm/mul_1"
  input: "MultiscaleDiscriminator_1/instance_normalization_27/batchnorm/sub"
  attr {
    key: "T"
    value {
      type: DT_FLOAT
    }
  }
}
node {
  name: "MultiscaleDiscriminator_1/instance_normalization_27/Reshape_3"
  op: "Reshape"
  input: "MultiscaleDiscriminator_1/instance_normalization_27/batchnorm/add_1"
  input: "MultiscaleDiscriminator_1/instance_normalization_27/Shape"
  attr {
    key: "T"
    value {
      type: DT_FLOAT
    }
  }
  attr {
    key: "Tshape"
    value {
      type: DT_INT32
    }
  }
}
node {
  name: "MultiscaleDiscriminator_1/leaky_re_lu_1/LeakyRelu"
  op: "LeakyRelu"
  input: "MultiscaleDiscriminator_1/instance_normalization_27/Reshape_3"
  attr {
    key: "T"
    value {
      type: DT_FLOAT
    }
  }
  attr {
    key: "alpha"
    value {
      f: 0.20000000298023224
    }
  }
}
node {
  name: "ones_like/Shape"
  op: "Shape"
  input: "MultiscaleDiscriminator_1/leaky_re_lu_5/LeakyRelu"
  attr {
    key: "T"
    value {
      type: DT_FLOAT
    }
  }
  attr {
    key: "out_type"
    value {
      type: DT_INT32
    }
  }
}
node {
  name: "ones_like/Const"
  op: "Const"
  attr {
    key: "dtype"
    value {
      type: DT_FLOAT
    }
  }
  attr {
    key: "value"
    value {
      tensor {
        dtype: DT_FLOAT
        tensor_shape {
        }
        float_val: 1.0
      }
    }
  }
}
node {
  name: "ones_like"
  op: "Fill"
  input: "ones_like/Shape"
  input: "ones_like/Const"
  attr {
    key: "T"
    value {
      type: DT_FLOAT
    }
  }
  attr {
    key: "index_type"
    value {
      type: DT_INT32
    }
  }
}
node {
  name: "mean_squared_error_2/SquaredDifference"
  op: "SquaredDifference"
  input: "ones_like"
  input: "MultiscaleDiscriminator_1/leaky_re_lu_5/LeakyRelu"
  attr {
    key: "T"
    value {
      type: DT_FLOAT
    }
  }
}
node {
  name: "mean_squared_error_2/Mean/reduction_indices"
  op: "Const"
  attr {
    key: "dtype"
    value {
      type: DT_INT32
    }
  }
  attr {
    key: "value"
    value {
      tensor {
        dtype: DT_INT32
        tensor_shape {
        }
        int_val: -1
      }
    }
  }
}
node {
  name: "mean_squared_error_2/Mean"
  op: "Mean"
  input: "mean_squared_error_2/SquaredDifference"
  input: "mean_squared_error_2/Mean/reduction_indices"
  attr {
    key: "T"
    value {
      type: DT_FLOAT
    }
  }
  attr {
    key: "Tidx"
    value {
      type: DT_INT32
    }
  }
  attr {
    key: "keep_dims"
    value {
      b: false
    }
  }
}
node {
  name: "mean_squared_error_2/weighted_loss/Const"
  op: "Const"
  attr {
    key: "dtype"
    value {
      type: DT_FLOAT
    }
  }
  attr {
    key: "value"
    value {
      tensor {
        dtype: DT_FLOAT
        tensor_shape {
        }
        float_val: 1.0
      }
    }
  }
}
node {
  name: "mean_squared_error_2/weighted_loss/broadcast_weights/assert_broadcastable/weights/shape"
  op: "Const"
  attr {
    key: "dtype"
    value {
      type: DT_INT32
    }
  }
  attr {
    key: "value"
    value {
      tensor {
        dtype: DT_INT32
        tensor_shape {
          dim {
          }
        }
      }
    }
  }
}
node {
  name: "mean_squared_error_2/weighted_loss/broadcast_weights/assert_broadcastable/weights/rank"
  op: "Const"
  attr {
    key: "dtype"
    value {
      type: DT_INT32
    }
  }
  attr {
    key: "value"
    value {
      tensor {
        dtype: DT_INT32
        tensor_shape {
        }
        int_val: 0
      }
    }
  }
}
node {
  name: "mean_squared_error_2/weighted_loss/broadcast_weights/assert_broadcastable/values/shape"
  op: "Shape"
  input: "mean_squared_error_2/Mean"
  attr {
    key: "T"
    value {
      type: DT_FLOAT
    }
  }
  attr {
    key: "out_type"
    value {
      type: DT_INT32
    }
  }
}
node {
  name: "mean_squared_error_2/weighted_loss/broadcast_weights/assert_broadcastable/values/rank"
  op: "Const"
  attr {
    key: "dtype"
    value {
      type: DT_INT32
    }
  }
  attr {
    key: "value"
    value {
      tensor {
        dtype: DT_INT32
        tensor_shape {
        }
        int_val: 3
      }
    }
  }
}
node {
  name: "mean_squared_error_2/weighted_loss/broadcast_weights/assert_broadcastable/static_scalar_check_success"
  op: "NoOp"
}
node {
  name: "mean_squared_error_2/weighted_loss/broadcast_weights/ones_like/Shape"
  op: "Shape"
  input: "mean_squared_error_2/Mean"
  input: "^mean_squared_error_2/weighted_loss/broadcast_weights/assert_broadcastable/static_scalar_check_success"
  attr {
    key: "T"
    value {
      type: DT_FLOAT
    }
  }
  attr {
    key: "out_type"
    value {
      type: DT_INT32
    }
  }
}
node {
  name: "mean_squared_error_2/weighted_loss/broadcast_weights/ones_like/Const"
  op: "Const"
  input: "^mean_squared_error_2/weighted_loss/broadcast_weights/assert_broadcastable/static_scalar_check_success"
  attr {
    key: "dtype"
    value {
      type: DT_FLOAT
    }
  }
  attr {
    key: "value"
    value {
      tensor {
        dtype: DT_FLOAT
        tensor_shape {
        }
        float_val: 1.0
      }
    }
  }
}
node {
  name: "mean_squared_error_2/weighted_loss/broadcast_weights/ones_like"
  op: "Fill"
  input: "mean_squared_error_2/weighted_loss/broadcast_weights/ones_like/Shape"
  input: "mean_squared_error_2/weighted_loss/broadcast_weights/ones_like/Const"
  attr {
    key: "T"
    value {
      type: DT_FLOAT
    }
  }
  attr {
    key: "index_type"
    value {
      type: DT_INT32
    }
  }
}
node {
  name: "mean_squared_error_2/weighted_loss/broadcast_weights"
  op: "Mul"
  input: "mean_squared_error_2/weighted_loss/Const"
  input: "mean_squared_error_2/weighted_loss/broadcast_weights/ones_like"
  attr {
    key: "T"
    value {
      type: DT_FLOAT
    }
  }
}
node {
  name: "mean_squared_error_2/weighted_loss/Mul"
  op: "Mul"
  input: "mean_squared_error_2/Mean"
  input: "mean_squared_error_2/weighted_loss/broadcast_weights"
  attr {
    key: "T"
    value {
      type: DT_FLOAT
    }
  }
}
node {
  name: "mean_squared_error_2/weighted_loss/Const_1"
  op: "Const"
…
        value {
          tensor {
            dtype: DT_INT32
            tensor_shape {
              dim {
                size: 1
              }
            }
            int_val: 2
          }
        }
      }
    }
    node_def {
      name: "sequential/instance_normalization_26/strided_slice_2/stack_1"
      op: "Const"
      attr {
        key: "dtype"
        value {
          type: DT_INT32
        }
      }
      attr {
        key: "value"
        value {
          tensor {
            dtype: DT_INT32
            tensor_shape {
              dim {
                size: 1
              }
            }
            int_val: 3
          }
        }
      }
    }
    node_def {
      name: "sequential/instance_normalization_26/strided_slice_2/stack_2"
      op: "Const"
      attr {
        key: "dtype"
        value {
          type: DT_INT32
        }
      }
      attr {
        key: "value"
        value {
          tensor {
            dtype: DT_INT32
            tensor_shape {
              dim {
                size: 1
              }
            }
            int_val: 1
          }
        }
      }
    }
    node_def {
      name: "sequential/instance_normalization_26/strided_slice_2"
      op: "StridedSlice"
      input: "sequential/instance_normalization_26/Shape:output:0"
      input: "sequential/instance_normalization_26/strided_slice_2/stack:output:0"
      input: "sequential/instance_normalization_26/strided_slice_2/stack_1:output:0"
      input: "sequential/instance_normalization_26/strided_slice_2/stack_2:output:0"
      attr {
        key: "Index"
        value {
          type: DT_INT32
        }
      }
      attr {
        key: "T"
        value {
          type: DT_INT32
        }
      }
      attr {
        key: "begin_mask"
        value {
          i: 0
        }
      }
      attr {
        key: "ellipsis_mask"
        value {
          i: 0
        }
      }
      attr {
        key: "end_mask"
        value {
          i: 0
        }
      }
      attr {
        key: "new_axis_mask"
        value {
          i: 0
        }
      }
      attr {
        key: "shrink_axis_mask"
        value {
          i: 1
        }
      }
    }
    node_def {
      name: "sequential/instance_normalization_26/strided_slice_3/stack"
      op: "Const"
      attr {
        key: "dtype"
        value {
          type: DT_INT32
        }
      }
      attr {
        key: "value"
        value {
          tensor {
            dtype: DT_INT32
            tensor_shape {
              dim {
                size: 1
              }
            }
            int_val: 3
          }
        }
      }
    }
    node_def {
      name: "sequential/instance_normalization_26/strided_slice_3/stack_1"
      op: "Const"
      attr {
        key: "dtype"
        value {
          type: DT_INT32
        }
      }
      attr {
        key: "value"
        value {
          tensor {
            dtype: DT_INT32
            tensor_shape {
              dim {
                size: 1
              }
            }
            int_val: 4
          }
        }
      }
    }
    node_def {
      name: "sequential/instance_normalization_26/strided_slice_3/stack_2"
      op: "Const"
      attr {
        key: "dtype"
        value {
          type: DT_INT32
        }
      }
      attr {
        key: "value"
        value {
          tensor {
            dtype: DT_INT32
            tensor_shape {
              dim {
                size: 1
              }
            }
            int_val: 1
          }
        }
      }
    }
    node_def {
      name: "sequential/instance_normalization_26/strided_slice_3"
      op: "StridedSlice"
      input: "sequential/instance_normalization_26/Shape:output:0"
      input: "sequential/instance_normalization_26/strided_slice_3/stack:output:0"
      input: "sequential/instance_normalization_26/strided_slice_3/stack_1:output:0"
      input: "sequential/instance_normalization_26/strided_slice_3/stack_2:output:0"
      attr {
        key: "Index"
        value {
          type: DT_INT32
        }
      }
      attr {
        key: "T"
        value {
          type: DT_INT32
        }
      }
      attr {
        key: "begin_mask"
        value {
          i: 0
        }
      }
      attr {
        key: "ellipsis_mask"
        value {
          i: 0
        }
      }
      attr {
        key: "end_mask"
        value {
          i: 0
        }
      }
      attr {
        key: "new_axis_mask"
        value {
          i: 0
        }
      }
      attr {
        key: "shrink_axis_mask"
        value {
          i: 1
        }
      }
    }
    node_def {
      name: "sequential/instance_normalization_26/stack/1"
      op: "Const"
      attr {
        key: "dtype"
        value {
          type: DT_INT32
        }
      }
      attr {
        key: "value"
        value {
          tensor {
            dtype: DT_INT32
            tensor_shape {
            }
            int_val: 64
          }
        }
      }
    }
    node_def {
      name: "sequential/instance_normalization_26/stack/4"
      op: "Const"
      attr {
        key: "dtype"
        value {
          type: DT_INT32
        }
      }
      attr {
        key: "value"
        value {
          tensor {
            dtype: DT_INT32
            tensor_shape {
            }
            int_val: 1
          }
        }
      }
    }
    node_def {
      name: "sequential/instance_normalization_26/stack"
      op: "Pack"
      input: "sequential/instance_normalization_26/strided_slice:output:0"
      input: "sequential/instance_normalization_26/stack/1:output:0"
      input: "sequential/instance_normalization_26/strided_slice_1:output:0"
      input: "sequential/instance_normalization_26/strided_slice_2:output:0"
      input: "sequential/instance_normalization_26/stack/4:output:0"
      attr {
        key: "N"
        value {
          i: 5
        }
      }
      attr {
        key: "T"
        value {
          type: DT_INT32
        }
      }
      attr {
        key: "axis"
        value {
          i: 0
        }
      }
    }
    node_def {
      name: "sequential/instance_normalization_26/Reshape"
      op: "Reshape"
      input: "sequential/conv2d_transpose_3/BiasAdd:output:0"
      input: "sequential/instance_normalization_26/stack:output:0"
      attr {
        key: "T"
        value {
          type: DT_FLOAT
        }
      }
      attr {
        key: "Tshape"
        value {
          type: DT_INT32
        }
      }
    }
    node_def {
      name: "sequential/instance_normalization_26/moments/mean/reduction_indices"
      op: "Const"
      attr {
        key: "dtype"
        value {
          type: DT_INT32
        }
      }
      attr {
        key: "value"
        value {
          tensor {
            dtype: DT_INT32
            tensor_shape {
              dim {
                size: 3
              }
            }
            tensor_content: "\002\000\000\000\003\000\000\000\004\000\000\000"
          }
        }
      }
    }
    node_def {
      name: "sequential/instance_normalization_26/moments/mean"
      op: "Mean"
      input: "sequential/instance_normalization_26/Reshape:output:0"
      input: "sequential/instance_normalization_26/moments/mean/reduction_indices:output:0"
      attr {
        key: "T"
        value {
          type: DT_FLOAT
        }
      }
      attr {
        key: "Tidx"
        value {
          type: DT_INT32
        }
      }
      attr {
        key: "keep_dims"
        value {
          b: true
        }
      }
    }
    node_def {
      name: "sequential/instance_normalization_26/moments/StopGradient"
      op: "StopGradient"
      input: "sequential/instance_normalization_26/moments/mean:output:0"
      attr {
        key: "T"
        value {
          type: DT_FLOAT
        }
      }
    }
    node_def {
      name: "sequential/instance_normalization_26/moments/SquaredDifference"
      op: "SquaredDifference"
      input: "sequential/instance_normalization_26/Reshape:output:0"
      input: "sequential/instance_normalization_26/moments/StopGradient:output:0"
      attr {
        key: "T"
        value {
          type: DT_FLOAT
        }
      }
    }
    node_def {
      name: "sequential/instance_normalization_26/moments/variance/reduction_indices"
      op: "Const"
      attr {
        key: "dtype"
        value {
          type: DT_INT32
        }
      }
      attr {
        key: "value"
        value {
          tensor {
            dtype: DT_INT32
            tensor_shape {
              dim {
                size: 3
              }
            }
            tensor_content: "\002\000\000\000\003\000\000\000\004\000\000\000"
          }
        }
      }
    }
    node_def {
      name: "sequential/instance_normalization_26/moments/variance"
      op: "Mean"
      input: "sequential/instance_normalization_26/moments/SquaredDifference:z:0"
      input: "sequential/instance_normalization_26/moments/variance/reduction_indices:output:0"
      attr {
        key: "T"
        value {
          type: DT_FLOAT
        }
      }
      attr {
        key: "Tidx"
        value {
          type: DT_INT32
        }
      }
      attr {
        key: "keep_dims"
        value {
          b: true
        }
      }
    }
    node_def {
      name: "sequential/instance_normalization_26/Reshape_1/ReadVariableOp"
      op: "ReadVariableOp"
      input: "sequential_instance_normalization_26_reshape_1_readvariableop_resource"
      device: "/job:localhost/replica:0/task:0/device:GPU:0"
      attr {
        key: "dtype"
        value {
          type: DT_FLOAT
        }
      }
    }
    node_def {
      name: "sequential/instance_normalization_26/Reshape_1/shape"
      op: "Const"
      attr {
        key: "dtype"
        value {
          type: DT_INT32
        }
      }
      attr {
        key: "value"
        value {
          tensor {
            dtype: DT_INT32
            tensor_shape {
              dim {
                size: 5
              }
            }
            tensor_content: "\001\000\000\000@\000\000\000\001\000\000\000\001\000\000\000\001\000\000\000"
          }
        }
      }
    }
    node_def {
      name: "sequential/instance_normalization_26/Reshape_1"
      op: "Reshape"
      input: "sequential/instance_normalization_26/Reshape_1/ReadVariableOp:value:0"
      input: "sequential/instance_normalization_26/Reshape_1/shape:output:0"
      attr {
        key: "T"
        value {
          type: DT_FLOAT
        }
      }
      attr {
        key: "Tshape"
        value {
          type: DT_INT32
        }
      }
    }
    node_def {
      name: "sequential/instance_normalization_26/Reshape_2/ReadVariableOp"
      op: "ReadVariableOp"
      input: "sequential_instance_normalization_26_reshape_2_readvariableop_resource"
      device: "/job:localhost/replica:0/task:0/device:GPU:0"
      attr {
        key: "dtype"
        value {
          type: DT_FLOAT
        }
      }
    }
    node_def {
      name: "sequential/instance_normalization_26/Reshape_2/shape"
      op: "Const"
      attr {
        key: "dtype"
        value {
          type: DT_INT32
        }
      }
      attr {
        key: "value"
        value {
          tensor {
            dtype: DT_INT32
            tensor_shape {
              dim {
                size: 5
              }
            }
            tensor_content: "\001\000\000\000@\000\000\000\001\000\000\000\001\000\000\000\001\000\000\000"
          }
        }
      }
    }
    node_def {
      name: "sequential/instance_normalization_26/Reshape_2"
      op: "Reshape"
      input: "sequential/instance_normalization_26/Reshape_2/ReadVariableOp:value:0"
      input: "sequential/instance_normalization_26/Reshape_2/shape:output:0"
      attr {
        key: "T"
        value {
          type: DT_FLOAT
        }
      }
      attr {
        key: "Tshape"
        value {
          type: DT_INT32
        }
      }
    }
    node_def {
      name: "sequential/instance_normalization_26/batchnorm/add/y"
      op: "Const"
      attr {
        key: "dtype"
        value {
          type: DT_FLOAT
        }
      }
      attr {
        key: "value"
        value {
          tensor {
            dtype: DT_FLOAT
            tensor_shape {
            }
            float_val: 9.999999747378752e-06
          }
        }
      }
    }
    node_def {
      name: "sequential/instance_normalization_26/batchnorm/add"
      op: "Add"
      input: "sequential/instance_normalization_26/moments/variance:output:0"
      input: "sequential/instance_normalization_26/batchnorm/add/y:output:0"
      attr {
        key: "T"
        value {
          type: DT_FLOAT
        }
      }
    }
    node_def {
      name: "sequential/instance_normalization_26/batchnorm/Rsqrt"
      op: "Rsqrt"
      input: "sequential/instance_normalization_26/batchnorm/add:z:0"
      attr {
        key: "T"
        value {
          type: DT_FLOAT
        }
      }
    }
    node_def {
      name: "sequential/instance_normalization_26/batchnorm/mul"
      op: "Mul"
      input: "sequential/instance_normalization_26/batchnorm/Rsqrt:y:0"
      input: "sequential/instance_normalization_26/Reshape_1:output:0"
      attr {
        key: "T"
        value {
          type: DT_FLOAT
        }
      }
    }
    node_def {
      name: "sequential/instance_normalization_26/batchnorm/mul_1"
      op: "Mul"
      input: "sequential/instance_normalization_26/Reshape:output:0"
      input: "sequential/instance_normalization_26/batchnorm/mul:z:0"
      attr {
        key: "T"
        value {
          type: DT_FLOAT
        }
      }
    }
    node_def {
      name: "sequential/instance_normalization_26/batchnorm/mul_2"
      op: "Mul"
      input: "sequential/instance_normalization_26/moments/mean:output:0"
      input: "sequential/instance_normalization_26/batchnorm/mul:z:0"
      attr {
        key: "T"
        value {
          type: DT_FLOAT
        }
      }
    }
    node_def {
      name: "sequential/instance_normalization_26/batchnorm/sub"
      op: "Sub"
      input: "sequential/instance_normalization_26/Reshape_2:output:0"
      input: "sequential/instance_normalization_26/batchnorm/mul_2:z:0"
      attr {
        key: "T"
        value {
          type: DT_FLOAT
        }
      }
    }
    node_def {
      name: "sequential/instance_normalization_26/batchnorm/add_1"
      op: "Add"
      input: "sequential/instance_normalization_26/batchnorm/mul_1:z:0"
      input: "sequential/instance_normalization_26/batchnorm/sub:z:0"
      attr {
        key: "T"
        value {
          type: DT_FLOAT
        }
      }
    }
    node_def {
      name: "sequential/instance_normalization_26/Reshape_3"
      op: "Reshape"
      input: "sequential/instance_normalization_26/batchnorm/add_1:z:0"
      input: "sequential/instance_normalization_26/Shape:output:0"
      attr {
        key: "T"
        value {
          type: DT_FLOAT
        }
      }
      attr {
        key: "Tshape"
        value {
          type: DT_INT32
        }
      }
    }
    node_def {
      name: "sequential/re_lu_1_8/Relu"
      op: "Relu"
      input: "sequential/instance_normalization_26/Reshape_3:output:0"
      attr {
        key: "T"
        value {
          type: DT_FLOAT
        }
      }
    }
    node_def {
      name: "sequential/reflection_pad2d_1/MirrorPad/paddings"
      op: "Const"
      attr {
        key: "dtype"
        value {
          type: DT_INT32
        }
      }
      attr {
        key: "value"
        value {
          tensor {
            dtype: DT_INT32
            tensor_shape {
              dim {
                size: 4
              }
              dim {
                size: 2
              }
            }
            tensor_content: "…"
          }
        }
      }
    }
    node_def {
      name: "sequential/reflection_pad2d_1/MirrorPad"
      op: "MirrorPad"
      input: "sequential/re_lu_1_8/Relu:activations:0"
      input: "sequential/reflection_pad2d_1/MirrorPad/paddings:output:0"
      attr {
        key: "T"
        value {
          type: DT_FLOAT
        }
      }
      attr {
        key: "Tpaddings"
        value {
          type: DT_INT32
        }
      }
      attr {
        key: "mode"
        value {
          s: "REFLECT"
        }
      }
    }
    node_def {
      name: "sequential/conv2d_23/Conv2D/ReadVariableOp"
      op: "ReadVariableOp"
      input: "sequential_conv2d_23_conv2d_readvariableop_resource"
      device: "/job:localhost/replica:0/task:0/device:GPU:0"
      attr {
        key: "dtype"
        value {
          type: DT_FLOAT
        }
      }
    }
    node_def {
      name: "sequential/conv2d_23/Conv2D"
      op: "Conv2D"
      input: "sequential/reflection_pad2d_1/MirrorPad:output:0"
      input: "sequential/conv2d_23/Conv2D/ReadVariableOp:value:0"
      attr {
        key: "T"
        value {
          type: DT_FLOAT
        }
      }
      attr {
        key: "data_format"
        value {
          s: "NHWC"
        }
      }
      attr {
        key: "dilations"
        value {
          list {
            i: 1
            i: 1
            i: 1
            i: 1
          }
        }
      }
      attr {
        key: "explicit_paddings"
        value {
          list {
          }
        }
      }
      attr {
        key: "padding"
        value {
          s: "VALID"
        }
      }
      attr {
        key: "strides"
        value {
          list {
            i: 1
            i: 1
            i: 1
            i: 1
          }
        }
      }
      attr {
        key: "use_cudnn_on_gpu"
        value {
          b: true
        }
      }
    }
    node_def {
      name: "sequential/conv2d_23/BiasAdd/ReadVariableOp"
      op: "ReadVariableOp"
      input: "sequential_conv2d_23_biasadd_readvariableop_resource"
      device: "/job:localhost/replica:0/task:0/device:GPU:0"
      attr {
        key: "dtype"
        value {
          type: DT_FLOAT
        }
      }
    }
    node_def {
      name: "sequential/conv2d_23/BiasAdd"
      op: "BiasAdd"
      input: "sequential/conv2d_23/Conv2D:output:0"
      input: "sequential/conv2d_23/BiasAdd/ReadVariableOp:value:0"
      attr {
        key: "T"
        value {
          type: DT_FLOAT
        }
      }
      attr {
        key: "data_format"
        value {
          s: "NHWC"
        }
      }
    }
    node_def {
      name: "sequential/global_output/Tanh"
      op: "Tanh"
      input: "sequential/conv2d_23/BiasAdd:output:0"
      attr {
        key: "T"
        value {
          type: DT_FLOAT
        }
      }
    }
    node_def {
      name: "Identity"
      op: "Identity"
      input: "sequential/global_output/Tanh:y:0"
      input: "^sequential/resnet_block_4/sequential_5/instance_normalization_13/Reshape_1/ReadVariableOp"
      input: "^sequential/resnet_block_5/sequential_6/conv2d_16/Conv2D/ReadVariableOp"
      input: "^sequential/instance_normalization_24/Reshape_2/ReadVariableOp"
      input: "^sequential/conv2d_3/BiasAdd/ReadVariableOp"
      input: "^sequential/resnet_block_5/sequential_6/instance_normalization_15/Reshape_2/ReadVariableOp"
      input: "^sequential/conv2d_3/Conv2D/ReadVariableOp"
      input: "^sequential/resnet_block_5/sequential_6/conv2d_15/Conv2D/ReadVariableOp"
      input: "^sequential/resnet_block_8/sequential_9/conv2d_21/BiasAdd/ReadVariableOp"
      input: "^sequential/resnet_block_7/sequential_8/instance_normalization_19/Reshape_1/ReadVariableOp"
      input: "^sequential/conv2d_transpose/BiasAdd/ReadVariableOp"
      input: "^sequential/resnet_block_4/sequential_5/instance_normalization_14/Reshape_1/ReadVariableOp"
      input: "^sequential/conv2d_1/BiasAdd/ReadVariableOp"
      input: "^sequential/resnet_block_3/sequential_4/conv2d_12/BiasAdd/ReadVariableOp"
      input: "^sequential/resnet_block_5/sequential_6/instance_normalization_16/Reshape_2/ReadVariableOp"
      input: "^sequential/resnet_block_1/sequential_2/instance_normalization_7/Reshape_1/ReadVariableOp"
      input: "^sequential/resnet_block_6/sequential_7/conv2d_17/BiasAdd/ReadVariableOp"
      input: "^sequential/resnet_block_8/sequential_9/instance_normalization_21/Reshape_2/ReadVariableOp"
      input: "^sequential/conv2d_transpose_2/conv2d_transpose/ReadVariableOp"
      input: "^sequential/resnet_block_6/sequential_7/instance_normalization_18/Reshape_1/ReadVariableOp"
      input: "^sequential/resnet_block_8/sequential_9/conv2d_21/Conv2D/ReadVariableOp"
      input: "^sequential/conv2d_transpose_1/conv2d_transpose/ReadVariableOp"
      input: "^sequential/resnet_block_7/sequential_8/instance_normalization_20/Reshape_2/ReadVariableOp"
      input: "^sequential/instance_normalization_23/Reshape_2/ReadVariableOp"
      input: "^sequential/instance_normalization_3/Reshape_2/ReadVariableOp"
      input: "^sequential/resnet_block/sequential_1/instance_normalization_6/Reshape_1/ReadVariableOp"
      input: "^sequential/instance_normalization_26/Reshape_1/ReadVariableOp"
      input: "^sequential/resnet_block_7/sequential_8/conv2d_20/Conv2D/ReadVariableOp"
      input: "^sequential/resnet_block_5/sequential_6/conv2d_15/BiasAdd/ReadVariableOp"
      input: "^sequential/resnet_block_1/sequential_2/conv2d_8/Conv2D/ReadVariableOp"
      input: "^sequential/resnet_block_8/sequential_9/conv2d_22/BiasAdd/ReadVariableOp"
      input: "^sequential/conv2d_transpose_2/BiasAdd/ReadVariableOp"
      input: "^sequential/resnet_block_3/sequential_4/instance_normalization_12/Reshape_1/ReadVariableOp"
      input: "^sequential/conv2d_transpose_1/BiasAdd/ReadVariableOp"
      input: "^sequential/resnet_block_4/sequential_5/instance_normalization_14/Reshape_2/ReadVariableOp"
      input: "^sequential/conv2d_23/Conv2D/ReadVariableOp"
      input: "^sequential/conv2d_4/BiasAdd/ReadVariableOp"
      input: "^sequential/resnet_block_4/sequential_5/conv2d_14/Conv2D/ReadVariableOp"
      input: "^sequential/instance_normalization_1/Reshape_1/ReadVariableOp"
      input: "^sequential/conv2d/Conv2D/ReadVariableOp"
      input: "^sequential/instance_normalization/Reshape_1/ReadVariableOp"
      input: "^sequential/resnet_block_2/sequential_3/instance_normalization_9/Reshape_1/ReadVariableOp"
      input: "^sequential/resnet_block_3/sequential_4/conv2d_11/BiasAdd/ReadVariableOp"
      input: "^sequential/resnet_block_5/sequential_6/conv2d_16/BiasAdd/ReadVariableOp"
      input: "^sequential/resnet_block_7/sequential_8/conv2d_20/BiasAdd/ReadVariableOp"
      input: "^sequential/instance_normalization_25/Reshape_1/ReadVariableOp"
      input: "^sequential/resnet_block_1/sequential_2/conv2d_8/BiasAdd/ReadVariableOp"
      input: "^sequential/resnet_block_6/sequential_7/instance_normalization_17/Reshape_1/ReadVariableOp"
      input: "^sequential/resnet_block_7/sequential_8/instance_normalization_19/Reshape_2/ReadVariableOp"
      input: "^sequential/instance_normalization_4/Reshape_1/ReadVariableOp"
      input: "^sequential/resnet_block/sequential_1/instance_normalization_5/Reshape_1/ReadVariableOp"
      input: "^sequential/resnet_block_2/sequential_3/instance_normalization_10/Reshape_2/ReadVariableOp"
      input: "^sequential/conv2d_transpose_3/BiasAdd/ReadVariableOp"
      input: "^sequential/resnet_block_1/sequential_2/instance_normalization_7/Reshape_2/ReadVariableOp"
      input: "^sequential/resnet_block_7/sequential_8/conv2d_19/Conv2D/ReadVariableOp"
      input: "^sequential/conv2d_23/BiasAdd/ReadVariableOp"
      input: "^sequential/resnet_block_2/sequential_3/conv2d_10/BiasAdd/ReadVariableOp"
      input: "^sequential/resnet_block_4/sequential_5/conv2d_14/BiasAdd/ReadVariableOp"
      input: "^sequential/conv2d_transpose/conv2d_transpose/ReadVariableOp"
      input: "^sequential/resnet_block_1/sequential_2/conv2d_7/Conv2D/ReadVariableOp"
      input: "^sequential/resnet_block_3/sequential_4/instance_normalization_11/Reshape_1/ReadVariableOp"
      input: "^sequential/instance_normalization_26/Reshape_2/ReadVariableOp"
      input: "^sequential/resnet_block_4/sequential_5/instance_normalization_13/Reshape_2/ReadVariableOp"
      input: "^sequential/resnet_block_8/sequential_9/instance_normalization_22/Reshape_1/ReadVariableOp"
      input: "^sequential/conv2d/BiasAdd/ReadVariableOp"
      input: "^sequential/resnet_block_2/sequential_3/conv2d_9/BiasAdd/ReadVariableOp"
      input: "^sequential/conv2d_2/Conv2D/ReadVariableOp"
      input: "^sequential/conv2d_4/Conv2D/ReadVariableOp"
      input: "^sequential/resnet_block_1/sequential_2/instance_normalization_8/Reshape_2/ReadVariableOp"
      input: "^sequential/resnet_block_4/sequential_5/conv2d_13/Conv2D/ReadVariableOp"
      input: "^sequential/resnet_block_2/sequential_3/conv2d_10/Conv2D/ReadVariableOp"
      input: "^sequential/resnet_block_7/sequential_8/conv2d_19/BiasAdd/ReadVariableOp"
      input: "^sequential/resnet_block_5/sequential_6/instance_normalization_16/Reshape_1/ReadVariableOp"
      input: "^sequential/instance_normalization_1/Reshape_2/ReadVariableOp"
      input: "^sequential/resnet_block_1/sequential_2/conv2d_7/BiasAdd/ReadVariableOp"
      input: "^sequential/resnet_block_6/sequential_7/instance_normalization_18/Reshape_2/ReadVariableOp"
      input: "^sequential/instance_normalization_24/Reshape_1/ReadVariableOp"
      input: "^sequential/conv2d_2/BiasAdd/ReadVariableOp"
      input: "^sequential/resnet_block/sequential_1/instance_normalization_6/Reshape_2/ReadVariableOp"
      input: "^sequential/resnet_block_6/sequential_7/conv2d_18/Conv2D/ReadVariableOp"
      input: "^sequential/resnet_block_4/sequential_5/conv2d_13/BiasAdd/ReadVariableOp"
      input: "^sequential/resnet_block/sequential_1/conv2d_6/Conv2D/ReadVariableOp"
      input: "^sequential/resnet_block_3/sequential_4/instance_normalization_12/Reshape_2/ReadVariableOp"
      input: "^sequential/resnet_block_8/sequential_9/instance_normalization_21/Reshape_1/ReadVariableOp"
      input: "^sequential/resnet_block_2/sequential_3/instance_normalization_10/Reshape_1/ReadVariableOp"
      input: "^sequential/resnet_block_3/sequential_4/conv2d_11/Conv2D/ReadVariableOp"
      input: "^sequential/resnet_block_3/sequential_4/conv2d_12/Conv2D/ReadVariableOp"
      input: "^sequential/resnet_block/sequential_1/conv2d_5/BiasAdd/ReadVariableOp"
      input: "^sequential/conv2d_transpose_3/conv2d_transpose/ReadVariableOp"
      input: "^sequential/resnet_block_6/sequential_7/conv2d_18/BiasAdd/ReadVariableOp"
      input: "^sequential/instance_normalization_25/Reshape_2/ReadVariableOp"
      input: "^sequential/instance_normalization_4/Reshape_2/ReadVariableOp"
      input: "^sequential/resnet_block/sequential_1/conv2d_6/BiasAdd/ReadVariableOp"
      input: "^sequential/resnet_block_5/sequential_6/instance_normalization_15/Reshape_1/ReadVariableOp"
      input: "^sequential/resnet_block_6/sequential_7/instance_normalization_17/Reshape_2/ReadVariableOp"
      input: "^sequential/resnet_block/sequential_1/instance_normalization_5/Reshape_2/ReadVariableOp"
      input: "^sequential/resnet_block_6/sequential_7/conv2d_17/Conv2D/ReadVariableOp"
      input: "^sequential/resnet_block_2/sequential_3/conv2d_9/Conv2D/ReadVariableOp"
      input: "^sequential/conv2d_1/Conv2D/ReadVariableOp"
      input: "^sequential/resnet_block_7/sequential_8/instance_normalization_20/Reshape_1/ReadVariableOp"
      input: "^sequential/resnet_block_3/sequential_4/instance_normalization_11/Reshape_2/ReadVariableOp"
      input: "^sequential/instance_normalization_23/Reshape_1/ReadVariableOp"
      input: "^sequential/instance_normalization/Reshape_2/ReadVariableOp"
      input: "^sequential/resnet_block_8/sequential_9/instance_normalization_22/Reshape_2/ReadVariableOp"
      input: "^sequential/resnet_block_1/sequential_2/instance_normalization_8/Reshape_1/ReadVariableOp"
      input: "^sequential/resnet_block_8/sequential_9/conv2d_22/Conv2D/ReadVariableOp"
      input: "^sequential/resnet_block/sequential_1/conv2d_5/Conv2D/ReadVariableOp"
      input: "^sequential/resnet_block_2/sequential_3/instance_normalization_9/Reshape_2/ReadVariableOp"
      input: "^sequential/instance_normalization_2/Reshape_1/ReadVariableOp"
      input: "^sequential/instance_normalization_2/Reshape_2/ReadVariableOp"
      input: "^sequential/instance_normalization_3/Reshape_1/ReadVariableOp"
      attr {
        key: "T"
        value {
          type: DT_FLOAT
        }
      }
    }
    ret {
      key: "identity"
      value: "Identity:output:0"
    }
    control_ret {
      key: "sequential/conv2d/BiasAdd/ReadVariableOp"
      value: "sequential/conv2d/BiasAdd/ReadVariableOp"
    }
    control_ret {
      key: "sequential/conv2d/Conv2D/ReadVariableOp"
      value: "sequential/conv2d/Conv2D/ReadVariableOp"
    }
    control_ret {
      key: "sequential/conv2d_1/BiasAdd/ReadVariableOp"
      value: "sequential/conv2d_1/BiasAdd/ReadVariableOp"
    }
    control_ret {
      key: "sequential/conv2d_1/Conv2D/ReadVariableOp"
      value: "sequential/conv2d_1/Conv2D/ReadVariableOp"
    }
    control_ret {
      key: "sequential/conv2d_2/BiasAdd/ReadVariableOp"
      value: "sequential/conv2d_2/BiasAdd/ReadVariableOp"
    }
    control_ret {
      key: "sequential/conv2d_2/Conv2D/ReadVariableOp"
      value: "sequential/conv2d_2/Conv2D/ReadVariableOp"
    }
    control_ret {
      key: "sequential/conv2d_23/BiasAdd/ReadVariableOp"
      value: "sequential/conv2d_23/BiasAdd/ReadVariableOp"
    }
    control_ret {
      key: "sequential/conv2d_23/Conv2D/ReadVariableOp"
      value: "sequential/conv2d_23/Conv2D/ReadVariableOp"
    }
    control_ret {
      key: "sequential/conv2d_3/BiasAdd/ReadVariableOp"
      value: "sequential/conv2d_3/BiasAdd/ReadVariableOp"
    }
    control_ret {
      key: "sequential/conv2d_3/Conv2D/ReadVariableOp"
      value: "sequential/conv2d_3/Conv2D/ReadVariableOp"
    }
    control_ret {
      key: "sequential/conv2d_4/BiasAdd/ReadVariableOp"
      value: "sequential/conv2d_4/BiasAdd/ReadVariableOp"
    }
    control_ret {
      key: "sequential/conv2d_4/Conv2D/ReadVariableOp"
      value: "sequential/conv2d_4/Conv2D/ReadVariableOp"
    }
    control_ret {
      key: "sequential/conv2d_transpose/BiasAdd/ReadVariableOp"
      value: "sequential/conv2d_transpose/BiasAdd/ReadVariableOp"
    }
    control_ret {
      key: "sequential/conv2d_transpose/conv2d_transpose/ReadVariableOp"
      value: "sequential/conv2d_transpose/conv2d_transpose/ReadVariableOp"
    }
    control_ret {
      key: "sequential/conv2d_transpose_1/BiasAdd/ReadVariableOp"
      value: "sequential/conv2d_transpose_1/BiasAdd/ReadVariableOp"
    }
    control_ret {
      key: "sequential/conv2d_transpose_1/conv2d_transpose/ReadVariableOp"
      value: "sequential/conv2d_transpose_1/conv2d_transpose/ReadVariableOp"
    }
    control_ret {
      key: "sequential/conv2d_transpose_2/BiasAdd/ReadVariableOp"
      value: "sequential/conv2d_transpose_2/BiasAdd/ReadVariableOp"
    }
    control_ret {
      key: "sequential/conv2d_transpose_2/conv2d_transpose/ReadVariableOp"
      value: "sequential/conv2d_transpose_2/conv2d_transpose/ReadVariableOp"
    }
    control_ret {
      key: "sequential/conv2d_transpose_3/BiasAdd/ReadVariableOp"
      value: "sequential/conv2d_transpose_3/BiasAdd/ReadVariableOp"
    }
    control_ret {
      key: "sequential/conv2d_transpose_3/conv2d_transpose/ReadVariableOp"
      value: "sequential/conv2d_transpose_3/conv2d_transpose/ReadVariableOp"
    }
    control_ret {
      key: "sequential/instance_normalization/Reshape_1/ReadVariableOp"
      value: "sequential/instance_normalization/Reshape_1/ReadVariableOp"
    }
    control_ret {
      key: "sequential/instance_normalization/Reshape_2/ReadVariableOp"
      value: "sequential/instance_normalization/Reshape_2/ReadVariableOp"
    }
    control_ret {
      key: "sequential/instance_normalization_1/Reshape_1/ReadVariableOp"
      value: "sequential/instance_normalization_1/Reshape_1/ReadVariableOp"
    }
    control_ret {
      key: "sequential/instance_normalization_1/Reshape_2/ReadVariableOp"
      value: "sequential/instance_normalization_1/Reshape_2/ReadVariableOp"
    }
    control_ret {
      key: "sequential/instance_normalization_2/Reshape_1/ReadVariableOp"
      value: "sequential/instance_normalization_2/Reshape_1/ReadVariableOp"
    }
    control_ret {
      key: "sequential/instance_normalization_2/Reshape_2/ReadVariableOp"
      value: "sequential/instance_normalization_2/Reshape_2/ReadVariableOp"
    }
    control_ret {
      key: "sequential/instance_normalization_23/Reshape_1/ReadVariableOp"
      value: "sequential/instance_normalization_23/Reshape_1/ReadVariableOp"
    }
    control_ret {
      key: "sequential/instance_normalization_23/Reshape_2/ReadVariableOp"
      value: "sequential/instance_normalization_23/Reshape_2/ReadVariableOp"
    }
    control_ret {
      key: "sequential/instance_normalization_24/Reshape_1/ReadVariableOp"
      value: "sequential/instance_normalization_24/Reshape_1/ReadVariableOp"
    }
    control_ret {
      key: "sequential/instance_normalization_24/Reshape_2/ReadVariableOp"
      value: "sequential/instance_normalization_24/Reshape_2/ReadVariableOp"
    }
    control_ret {
      key: "sequential/instance_normalization_25/Reshape_1/ReadVariableOp"
      value: "sequential/instance_normalization_25/Reshape_1/ReadVariableOp"
    }
    control_ret {
      key: "sequential/instance_normalization_25/Reshape_2/ReadVariableOp"
      value: "sequential/instance_normalization_25/Reshape_2/ReadVariableOp"
    }
    control_ret {
      key: "sequential/instance_normalization_26/Reshape_1/ReadVariableOp"
      value: "sequential/instance_normalization_26/Reshape_1/ReadVariableOp"
    }
    control_ret {
      key: "sequential/instance_normalization_26/Reshape_2/ReadVariableOp"
      value: "sequential/instance_normalization_26/Reshape_2/ReadVariableOp"
    }
    control_ret {
      key: "sequential/instance_normalization_3/Reshape_1/ReadVariableOp"
      value: "sequential/instance_normalization_3/Reshape_1/ReadVariableOp"
    }
    control_ret {
      key: "sequential/instance_normalization_3/Reshape_2/ReadVariableOp"
      value: "sequential/instance_normalization_3/Reshape_2/ReadVariableOp"
    }
    control_ret {
      key: "sequential/instance_normalization_4/Reshape_1/ReadVariableOp"
      value: "sequential/instance_normalization_4/Reshape_1/ReadVariableOp"
    }
    control_ret {
      key: "sequential/instance_normalization_4/Reshape_2/ReadVariableOp"
      value: "sequential/instance_normalization_4/Reshape_2/ReadVariableOp"
    }
    control_ret {
      key: "sequential/resnet_block/sequential_1/conv2d_5/BiasAdd/ReadVariableOp"
      value: "sequential/resnet_block/sequential_1/conv2d_5/BiasAdd/ReadVariableOp"
    }
    control_ret {
      key: "sequential/resnet_block/sequential_1/conv2d_5/Conv2D/ReadVariableOp"
      value: "sequential/resnet_block/sequential_1/conv2d_5/Conv2D/ReadVariableOp"
    }
    control_ret {
      key: "sequential/resnet_block/sequential_1/conv2d_6/BiasAdd/ReadVariableOp"
      value: "sequential/resnet_block/sequential_1/conv2d_6/BiasAdd/ReadVariableOp"
    }
    control_ret {
      key: "sequential/resnet_block/sequential_1/conv2d_6/Conv2D/ReadVariableOp"
      value: "sequential/resnet_block/sequential_1/conv2d_6/Conv2D/ReadVariableOp"
    }
    control_ret {
      key: "sequential/resnet_block/sequential_1/instance_normalization_5/Reshape_1/ReadVariableOp"
      value: "sequential/resnet_block/sequential_1/instance_normalization_5/Reshape_1/ReadVariableOp"
    }
    control_ret {
      key: "sequential/resnet_block/sequential_1/instance_normalization_5/Reshape_2/ReadVariableOp"
      value: "sequential/resnet_block/sequential_1/instance_normalization_5/Reshape_2/ReadVariableOp"
    }
    control_ret {
      key: "sequential/resnet_block/sequential_1/instance_normalization_6/Reshape_1/ReadVariableOp"
      value: "sequential/resnet_block/sequential_1/instance_normalization_6/Reshape_1/ReadVariableOp"
    }
    control_ret {
      key: "sequential/resnet_block/sequential_1/instance_normalization_6/Reshape_2/ReadVariableOp"
      value: "sequential/resnet_block/sequential_1/instance_normalization_6/Reshape_2/ReadVariableOp"
    }
    control_ret {
      key: "sequential/resnet_block_1/sequential_2/conv2d_7/BiasAdd/ReadVariableOp"
      value: "sequential/resnet_block_1/sequential_2/conv2d_7/BiasAdd/ReadVariableOp"
    }
    control_ret {
      key: "sequential/resnet_block_1/sequential_2/conv2d_7/Conv2D/ReadVariableOp"
      value: "sequential/resnet_block_1/sequential_2/conv2d_7/Conv2D/ReadVariableOp"
    }
    control_ret {
      key: "sequential/resnet_block_1/sequential_2/conv2d_8/BiasAdd/ReadVariableOp"
      value: "sequential/resnet_block_1/sequential_2/conv2d_8/BiasAdd/ReadVariableOp"
    }
    control_ret {
      key: "sequential/resnet_block_1/sequential_2/conv2d_8/Conv2D/ReadVariableOp"
      value: "sequential/resnet_block_1/sequential_2/conv2d_8/Conv2D/ReadVariableOp"
    }
    control_ret {
      key: "sequential/resnet_block_1/sequential_2/instance_normalization_7/Reshape_1/ReadVariableOp"
      value: "sequential/resnet_block_1/sequential_2/instance_normalization_7/Reshape_1/ReadVariableOp"
    }
    control_ret {
      key: "sequential/resnet_block_1/sequential_2/instance_normalization_7/Reshape_2/ReadVariableOp"
      value: "sequential/resnet_block_1/sequential_2/instance_normalization_7/Reshape_2/ReadVariableOp"
    }
    control_ret {
      key: "sequential/resnet_block_1/sequential_2/instance_normalization_8/Reshape_1/ReadVariableOp"
      value: "sequential/resnet_block_1/sequential_2/instance_normalization_8/Reshape_1/ReadVariableOp"
    }
    control_ret {
      key: "sequential/resnet_block_1/sequential_2/instance_normalization_8/Reshape_2/ReadVariableOp"
      value: "sequential/resnet_block_1/sequential_2/instance_normalization_8/Reshape_2/ReadVariableOp"
    }
    control_ret {
      key: "sequential/resnet_block_2/sequential_3/conv2d_10/BiasAdd/ReadVariableOp"
      value: "sequential/resnet_block_2/sequential_3/conv2d_10/BiasAdd/ReadVariableOp"
    }
    control_ret {
      key: "sequential/resnet_block_2/sequential_3/conv2d_10/Conv2D/ReadVariableOp"
      value: "sequential/resnet_block_2/sequential_3/conv2d_10/Conv2D/ReadVariableOp"
    }
    control_ret {
      key: "sequential/resnet_block_2/sequential_3/conv2d_9/BiasAdd/ReadVariableOp"
      value: "sequential/resnet_block_2/sequential_3/conv2d_9/BiasAdd/ReadVariableOp"
    }
    control_ret {
      key: "sequential/resnet_block_2/sequential_3/conv2d_9/Conv2D/ReadVariableOp"
      value: "sequential/resnet_block_2/sequential_3/conv2d_9/Conv2D/ReadVariableOp"
    }
    control_ret {
      key: "sequential/resnet_block_2/sequential_3/instance_normalization_10/Reshape_1/ReadVariableOp"
      value: "sequential/resnet_block_2/sequential_3/instance_normalization_10/Reshape_1/ReadVariableOp"
    }
    control_ret {
      key: "sequential/resnet_block_2/sequential_3/instance_normalization_10/Reshape_2/ReadVariableOp"
      value: "sequential/resnet_block_2/sequential_3/instance_normalization_10/Reshape_2/ReadVariableOp"
    }
    control_ret {
      key: "sequential/resnet_block_2/sequential_3/instance_normalization_9/Reshape_1/ReadVariableOp"
      value: "sequential/resnet_block_2/sequential_3/instance_normalization_9/Reshape_1/ReadVariableOp"
    }
    control_ret {
      key: "sequential/resnet_block_2/sequential_3/instance_normalization_9/Reshape_2/ReadVariableOp"
      value: "sequential/resnet_block_2/sequential_3/instance_normalization_9/Reshape_2/ReadVariableOp"
    }
    control_ret {
      key: "sequential/resnet_block_3/sequential_4/conv2d_11/BiasAdd/ReadVariableOp"
      value: "sequential/resnet_block_3/sequential_4/conv2d_11/BiasAdd/ReadVariableOp"
    }
    control_ret {
      key: "sequential/resnet_block_3/sequential_4/conv2d_11/Conv2D/ReadVariableOp"
      value: "sequential/resnet_block_3/sequential_4/conv2d_11/Conv2D/ReadVariableOp"
    }
    control_ret {
      key: "sequential/resnet_block_3/sequential_4/conv2d_12/BiasAdd/ReadVariableOp"
      value: "sequential/resnet_block_3/sequential_4/conv2d_12/BiasAdd/ReadVariableOp"
    }
    control_ret {
      key: "sequential/resnet_block_3/sequential_4/conv2d_12/Conv2D/ReadVariableOp"
      value: "sequential/resnet_block_3/sequential_4/conv2d_12/Conv2D/ReadVariableOp"
    }
    control_ret {
      key: "sequential/resnet_block_3/sequential_4/instance_normalization_11/Reshape_1/ReadVariableOp"
      value: "sequential/resnet_block_3/sequential_4/instance_normalization_11/Reshape_1/ReadVariableOp"
    }
    control_ret {
      key: "sequential/resnet_block_3/sequential_4/instance_normalization_11/Reshape_2/ReadVariableOp"
      value: "sequential/resnet_block_3/sequential_4/instance_normalization_11/Reshape_2/ReadVariableOp"
    }
    control_ret {
      key: "sequential/resnet_block_3/sequential_4/instance_normalization_12/Reshape_1/ReadVariableOp"
      value: "sequential/resnet_block_3/sequential_4/instance_normalization_12/Reshape_1/ReadVariableOp"
    }
    control_ret {
      key: "sequential/resnet_block_3/sequential_4/instance_normalization_12/Reshape_2/ReadVariableOp"
      value: "sequential/resnet_block_3/sequential_4/instance_normalization_12/Reshape_2/ReadVariableOp"
    }
    control_ret {
      key: "sequential/resnet_block_4/sequential_5/conv2d_13/BiasAdd/ReadVariableOp"
      value: "sequential/resnet_block_4/sequential_5/conv2d_13/BiasAdd/ReadVariableOp"
    }
    control_ret {
      key: "sequential/resnet_block_4/sequential_5/conv2d_13/Conv2D/ReadVariableOp"
      value: "sequential/resnet_block_4/sequential_5/conv2d_13/Conv2D/ReadVariableOp"
    }
    control_ret {
      key: "sequential/resnet_block_4/sequential_5/conv2d_14/BiasAdd/ReadVariableOp"
      value: "sequential/resnet_block_4/sequential_5/conv2d_14/BiasAdd/ReadVariableOp"
    }
    control_ret {
      key: "sequential/resnet_block_4/sequential_5/conv2d_14/Conv2D/ReadVariableOp"
      value: "sequential/resnet_block_4/sequential_5/conv2d_14/Conv2D/ReadVariableOp"
    }
    control_ret {
      key: "sequential/resnet_block_4/sequential_5/instance_normalization_13/Reshape_1/ReadVariableOp"
      value: "sequential/resnet_block_4/sequential_5/instance_normalization_13/Reshape_1/ReadVariableOp"
    }
    control_ret {
      key: "sequential/resnet_block_4/sequential_5/instance_normalization_13/Reshape_2/ReadVariableOp"
      value: "sequential/resnet_block_4/sequential_5/instance_normalization_13/Reshape_2/ReadVariableOp"
    }
    control_ret {
      key: "sequential/resnet_block_4/sequential_5/instance_normalization_14/Reshape_1/ReadVariableOp"
      value: "sequential/resnet_block_4/sequential_5/instance_normalization_14/Reshape_1/ReadVariableOp"
    }
    control_ret {
      key: "sequential/resnet_block_4/sequential_5/instance_normalization_14/Reshape_2/ReadVariableOp"
      value: "sequential/resnet_block_4/sequential_5/instance_normalization_14/Reshape_2/ReadVariableOp"
    }
    control_ret {
      key: "sequential/resnet_block_5/sequential_6/conv2d_15/BiasAdd/ReadVariableOp"
      value: "sequential/resnet_block_5/sequential_6/conv2d_15/BiasAdd/ReadVariableOp"
    }
    control_ret {
      key: "sequential/resnet_block_5/sequential_6/conv2d_15/Conv2D/ReadVariableOp"
      value: "sequential/resnet_block_5/sequential_6/conv2d_15/Conv2D/ReadVariableOp"
    }
    control_ret {
      key: "sequential/resnet_block_5/sequential_6/conv2d_16/BiasAdd/ReadVariableOp"
      value: "sequential/resnet_block_5/sequential_6/conv2d_16/BiasAdd/ReadVariableOp"
    }
    control_ret {
      key: "sequential/resnet_block_5/sequential_6/conv2d_16/Conv2D/ReadVariableOp"
      value: "sequential/resnet_block_5/sequential_6/conv2d_16/Conv2D/ReadVariableOp"
    }
    control_ret {
      key: "sequential/resnet_block_5/sequential_6/instance_normalization_15/Reshape_1/ReadVariableOp"
      value: "sequential/resnet_block_5/sequential_6/instance_normalization_15/Reshape_1/ReadVariableOp"
    }
    control_ret {
      key: "sequential/resnet_block_5/sequential_6/instance_normalization_15/Reshape_2/ReadVariableOp"
      value: "sequential/resnet_block_5/sequential_6/instance_normalization_15/Reshape_2/ReadVariableOp"
    }
    control_ret {
      key: "sequential/resnet_block_5/sequential_6/instance_normalization_16/Reshape_1/ReadVariableOp"
      value: "sequential/resnet_block_5/sequential_6/instance_normalization_16/Reshape_1/ReadVariableOp"
    }
    control_ret {
      key: "sequential/resnet_block_5/sequential_6/instance_normalization_16/Reshape_2/ReadVariableOp"
      value: "sequential/resnet_block_5/sequential_6/instance_normalization_16/Reshape_2/ReadVariableOp"
    }
    control_ret {
      key: "sequential/resnet_block_6/sequential_7/conv2d_17/BiasAdd/ReadVariableOp"
      value: "sequential/resnet_block_6/sequential_7/conv2d_17/BiasAdd/ReadVariableOp"
    }
    control_ret {
      key: "sequential/resnet_block_6/sequential_7/conv2d_17/Conv2D/ReadVariableOp"
      value: "sequential/resnet_block_6/sequential_7/conv2d_17/Conv2D/ReadVariableOp"
    }
    control_ret {
      key: "sequential/resnet_block_6/sequential_7/conv2d_18/BiasAdd/ReadVariableOp"
      value: "sequential/resnet_block_6/sequential_7/conv2d_18/BiasAdd/ReadVariableOp"
    }
    control_ret {
      key: "sequential/resnet_block_6/sequential_7/conv2d_18/Conv2D/ReadVariableOp"
      value: "sequential/resnet_block_6/sequential_7/conv2d_18/Conv2D/ReadVariableOp"
    }
    control_ret {
      key: "sequential/resnet_block_6/sequential_7/instance_normalization_17/Reshape_1/ReadVariableOp"
      value: "sequential/resnet_block_6/sequential_7/instance_normalization_17/Reshape_1/ReadVariableOp"
    }
    control_ret {
      key: "sequential/resnet_block_6/sequential_7/instance_normalization_17/Reshape_2/ReadVariableOp"
      value: "sequential/resnet_block_6/sequential_7/instance_normalization_17/Reshape_2/ReadVariableOp"
    }
    control_ret {
      key: "sequential/resnet_block_6/sequential_7/instance_normalization_18/Reshape_1/ReadVariableOp"
      value: "sequential/resnet_block_6/sequential_7/instance_normalization_18/Reshape_1/ReadVariableOp"
    }
    control_ret {
      key: "sequential/resnet_block_6/sequential_7/instance_normalization_18/Reshape_2/ReadVariableOp"
      value: "sequential/resnet_block_6/sequential_7/instance_normalization_18/Reshape_2/ReadVariableOp"
    }
    control_ret {
      key: "sequential/resnet_block_7/sequential_8/conv2d_19/BiasAdd/ReadVariableOp"
      value: "sequential/resnet_block_7/sequential_8/conv2d_19/BiasAdd/ReadVariableOp"
    }
    control_ret {
      key: "sequential/resnet_block_7/sequential_8/conv2d_19/Conv2D/ReadVariableOp"
      value: "sequential/resnet_block_7/sequential_8/conv2d_19/Conv2D/ReadVariableOp"
    }
    control_ret {
      key: "sequential/resnet_block_7/sequential_8/conv2d_20/BiasAdd/ReadVariableOp"
      value: "sequential/resnet_block_7/sequential_8/conv2d_20/BiasAdd/ReadVariableOp"
    }
    control_ret {
      key: "sequential/resnet_block_7/sequential_8/conv2d_20/Conv2D/ReadVariableOp"
      value: "sequential/resnet_block_7/sequential_8/conv2d_20/Conv2D/ReadVariableOp"
    }
    control_ret {
      key: "sequential/resnet_block_7/sequential_8/instance_normalization_19/Reshape_1/ReadVariableOp"
      value: "sequential/resnet_block_7/sequential_8/instance_normalization_19/Reshape_1/ReadVariableOp"
    }
    control_ret {
      key: "sequential/resnet_block_7/sequential_8/instance_normalization_19/Reshape_2/ReadVariableOp"
      value: "sequential/resnet_block_7/sequential_8/instance_normalization_19/Reshape_2/ReadVariableOp"
    }
    control_ret {
      key: "sequential/resnet_block_7/sequential_8/instance_normalization_20/Reshape_1/ReadVariableOp"
      value: "sequential/resnet_block_7/sequential_8/instance_normalization_20/Reshape_1/ReadVariableOp"
    }
    control_ret {
      key: "sequential/resnet_block_7/sequential_8/instance_normalization_20/Reshape_2/ReadVariableOp"
      value: "sequential/resnet_block_7/sequential_8/instance_normalization_20/Reshape_2/ReadVariableOp"
    }
    control_ret {
      key: "sequential/resnet_block_8/sequential_9/conv2d_21/BiasAdd/ReadVariableOp"
      value: "sequential/resnet_block_8/sequential_9/conv2d_21/BiasAdd/ReadVariableOp"
    }
    control_ret {
      key: "sequential/resnet_block_8/sequential_9/conv2d_21/Conv2D/ReadVariableOp"
      value: "sequential/resnet_block_8/sequential_9/conv2d_21/Conv2D/ReadVariableOp"
    }
    control_ret {
      key: "sequential/resnet_block_8/sequential_9/conv2d_22/BiasAdd/ReadVariableOp"
      value: "sequential/resnet_block_8/sequential_9/conv2d_22/BiasAdd/ReadVariableOp"
    }
    control_ret {
      key: "sequential/resnet_block_8/sequential_9/conv2d_22/Conv2D/ReadVariableOp"
      value: "sequential/resnet_block_8/sequential_9/conv2d_22/Conv2D/ReadVariableOp"
    }
    control_ret {
      key: "sequential/resnet_block_8/sequential_9/instance_normalization_21/Reshape_1/ReadVariableOp"
      value: "sequential/resnet_block_8/sequential_9/instance_normalization_21/Reshape_1/ReadVariableOp"
    }
    control_ret {
      key: "sequential/resnet_block_8/sequential_9/instance_normalization_21/Reshape_2/ReadVariableOp"
      value: "sequential/resnet_block_8/sequential_9/instance_normalization_21/Reshape_2/ReadVariableOp"
    }
    control_ret {
      key: "sequential/resnet_block_8/sequential_9/instance_normalization_22/Reshape_1/ReadVariableOp"
      value: "sequential/resnet_block_8/sequential_9/instance_normalization_22/Reshape_1/ReadVariableOp"
    }
    control_ret {
      key: "sequential/resnet_block_8/sequential_9/instance_normalization_22/Reshape_2/ReadVariableOp"
      value: "sequential/resnet_block_8/sequential_9/instance_normalization_22/Reshape_2/ReadVariableOp"
    }
  }
}
versions {
  producer: 27
  min_consumer: 12
}
